models/experimental/spectrogram_transformer/spectrogram_transformer16_weights.pth (torch, 569346 bytes, 28 tensors)

input_projection.weight f4 [16, 64]
000000 93 c3 1d bf ce c8 1e 3e 11 b6 6d 3e 4c 05 59 3d
       -0.6162655 0.15506288 0.23213984 0.052983567
000010 8d b6 22 be 27 8f f1 bd 24 b1 e3 be 51 6e a6 3e
       -0.1588995 -0.11794882 -0.44471085 0.3250604
000020 6d 08 5d 3f 66 63 fd 3e bc 9b 03 3f e6 3e e5 3e
       0.8634098 0.49489897 0.51409507 0.4477455
000030 f4 34 a2 3d b9 d9 bf 3d f7 3e 07 bf 88 e4 06 bf
       0.07920256 0.09367699 -0.5283045 -0.5269246
000040 a1 16 10 be e7 f2 71 3e 82 3f 89 3e db 20 d2 be
       -0.14071132 0.23627816 0.26806265 -0.41040692
000050 c2 51 ae be 0a 31 15 be 2e 1d 98 be 08 2b d3 3d
       -0.3404675 -0.14569488 -0.29709762 0.10310942
000060 6b 11 82 3e 17 96 d7 3d 66 6c f8 3e e5 d7 ea 3e
       0.25403914 0.10526674 0.485202 0.4586784
000070 45 c9 01 be 0d 06 cf be 16 e4 e9 be 61 06 b3 be
       -0.12674434 -0.40434304 -0.45681828 -0.34965804
000080 44 4f a0 3c ee 56 a5 be b9 63 36 bf 23 e2 03 bf
       0.019569047 -0.32292885 -0.71245915 -0.5151693
000090 ba e2 af be c7 ff 9e be 6b b7 52 bd 3b a2 21 be
       -0.34352666 -0.31054518 -0.051444452 -0.15784542
0000a0 c0 6e 55 bd 35 f6 ce 3e fd fd a8 3b 32 aa 47 be
       -0.052107573 0.40422216 0.005157231 -0.19498518
0000b0 5e 1c 84 be af 27 4c be 69 99 83 be 25 eb 34 bc
       -0.25802892 -0.19937013 -0.2570298 -0.011042391
0000c0 3a a4 87 be 0f 63 01 bf d7 d0 c3 be 64 d8 d4 3d
       -0.26492482 -0.50541776 -0.3824527 0.10392836
0000d0 c3 07 8b 3e 22 bf ed 3e 74 3d d2 3e 35 05 80 3e
       0.2715436 0.46434885 0.4106251 0.25003973
0000e0 82 f8 38 3e 88 b4 3e 3d 90 18 15 bc 9a f2 a1 3c
       0.18063548 0.046558887 -0.009100094 0.019769002
0000f0 39 ab c0 3d 6f a9 fc 3d 34 3e 4d 3e a4 00 b5 3e
       0.09407658 0.123370044 0.2004326 0.3535205
000100 a7 95 91 3f 5c d1 72 3f 8b c6 6a 3f 9d 67 45 bc
       1.1373795 0.9485071 0.917092 -0.012048629
000110 88 e8 b2 be 0a 08 1f bf 3c 82 d6 be bb d8 87 be
       -0.34943032 -0.6212164 -0.41896236 -0.2653254
000120 88 be 2f be 94 f0 5e be b1 98 cb be 15 4e 84 be
       -0.17162526 -0.21771461 -0.39764932 -0.25840822
000130 c1 24 5f be 8f 22 ef 3d ff cd 1c 3e 40 e2 94 3e
       -0.21791364 0.116765134 0.15312956 0.29078865
000140 a5 98 55 3e 1b 6f 09 3f 25 40 df 3d 77 3c 89 bd
       0.2085901 0.5368516 0.109009065 -0.06700986
000150 13 76 86 be 2c 08 ae be 3a 87 34 3c a9 60 53 3e
       -0.26261958 -0.3399061 0.011018569 0.20642342
000160 36 fb 8a 3d fa 73 46 3e c5 78 cd 3e 98 f1 32 3e
       0.06786196 0.19380179 0.40131202 0.17474973
000170 10 9e c2 3e dd 2f e6 bd 13 ab 29 be d5 89 85 3d
       0.38011217 -0.11239598 -0.16569166 0.0652043
000180 df 3b ae 3e db bd 67 be 55 27 90 be c1 ea cd be
       0.34030053 -0.22631018 -0.28155008 -0.40218166
000190 42 79 3f bf a1 1a b4 be 77 ae 92 be 16 c0 c1 be
       -0.747944 -0.35176566 -0.2864873 -0.37841862
0001a0 57 16 a2 3c a4 47 52 3c d2 e8 49 3e c7 25 dd 3d
       0.019786043 0.012834463 0.1971772 0.10798221
0001b0 c8 4c 9e 3d ae b0 b5 3e 2b 70 f9 3e f2 72 08 3f
       0.077294886 0.35486358 0.4871839 0.5330039
0001c0 60 80 01 3f 61 df 99 3e f6 56 a3 bd 40 c2 4e 3d
       0.5058651 0.30053237 -0.07975571 0.05047822
0001d0 d9 d2 8d bd 95 ce 86 be 5a ff fd be d5 12 a6 be
       -0.069249816 -0.26329485 -0.4960888 -0.32436243
0001e0 88 0c 97 be ab 86 54 be c6 7c 94 bc 03 9c 4e be
       -0.29501748 -0.20754497 -0.018125903 -0.20176701
0001f0 99 6d 9d bd 7b 98 02 3e 6b 4d a0 bd b3 94 84 be
       -0.0768692 0.12753479 -0.07827266 -0.25894699
000200 27 50 b2 bf d2 ad 52 3e 0b 39 8f 3e a9 95 00 be
       -1.393071 0.2057412 0.27973208 -0.12557091
000210 47 27 0b be b5 56 98 be c6 36 06 be ca b0 af 3e
       -0.13589202 -0.29753652 -0.13106832 0.34314567
000220 f3 35 f4 3e 16 e9 0d 3e fe 13 8d 3e 16 90 ea 3e
       0.4769741 0.13858446 0.27554315 0.45813054
000230 e5 88 07 3f 59 49 08 3f 5d c3 43 3e e0 60 54 3e
       0.5294326 0.5323692 0.19117494 0.2074008
000240 60 29 cf be 0c c6 07 3e 31 ba 7b be 96 de 20 bf
       -0.40461254 0.13259143 -0.24582745 -0.6283964
000250 91 93 d7 be 63 e2 32 bf 76 f5 17 bf 72 cc d8 bd
       -0.42104772 -0.6987669 -0.5935892 -0.1058587
000260 d4 1e 7b be 2c cf 1f bd 12 b8 cd 3e 36 3f db 3c
       -0.24523479 -0.039015934 0.40179497 0.02676354
000270 ad 12 ab 3e 34 e4 34 3d 50 6f e0 3c 62 db c6 bd
       0.33412686 0.044162944 0.027396828 -0.09709813
000280 af 1c 58 3f 8b 92 6d be f9 fb 53 3e f6 0a 54 3e
       0.8441877 -0.23200433 0.20701589 0.20707306
000290 85 3f b3 3c 89 87 4a 3e 79 bf 18 3f 88 ce 98 3e
       0.021880874 0.19778265 0.59667164 0.2984507
0002a0 29 db e2 3e 98 af 01 3f e0 ee 11 be 04 42 5b 3e
       0.4430783 0.5065856 -0.1425128 0.21411902
0002b0 ff cc 05 3e b6 4a bf bd d6 a5 44 3e 97 62 bc 3e
       0.13066481 -0.09340422 0.19203886 0.36793968
0002c0 5c 09 6d be db 82 2b 3e 5c 4b 57 be 38 7b ff bd
       -0.23148102 0.16749136 -0.21024841 -0.12474674
0002d0 0d 5d c5 bd 99 b4 45 be 9d f3 8e be f7 f7 87 bd
       -0.09636889 -0.19307174 -0.27920237 -0.066390924
0002e0 be 1e 14 be 2e 81 1a bd dc 1c 2d be f7 ab 38 be
       -0.14464852 -0.03772085 -0.1690554 -0.1803435
0002f0 37 b6 d5 bc 4f 74 c7 bd ea 02 e5 bb 6f dc e3 bc
       -0.026087863 -0.09738981 -0.006988873 -0.027815072
000300 e0 61 67 3e b2 ec 7e be 21 ae 8c 3d da 28 37 3f
       0.2259593 -0.2489498 0.0686915 0.7154671
000310 40 77 7b 3f e7 d4 a0 3f 3f e5 84 3f 02 9a 57 3f
       0.98228836 1.2564973 1.038246 0.8421937
000320 b0 c3 00 3f 72 fd 1a be 80 73 6b be 7a 76 11 3d
       0.50298595 -0.15135744 -0.22993279 0.03551338
000330 a4 c1 d3 3e 3f 74 ec 3d 05 70 c6 be 25 37 fd be
       0.41358674 0.1154561 -0.3875734 -0.49456134
000340 54 b8 cc 3d 36 b5 ef 3d 96 9a 0b 3e 8a 13 18 3e
       0.09996095 0.11704485 0.13633189 0.14851204
000350 47 b8 6c 3e 1e cb ee 3e a2 32 55 3e 28 1c d9 3d
       0.23117171 0.4663934 0.20820096 0.106010735
000360 34 24 76 3e 42 ba db 3e 02 33 04 3d 8d 1f 0b 3f
       0.24037248 0.4291554 0.032275207 0.5434502
000370 96 67 da bd bc 93 e3 38 13 76 24 3e a2 db 58 3e
       -0.10664289 0.00010851721 0.16060667 0.21177533
000380 90 af b3 bd 3b 06 03 3e fe fc 26 be 05 76 3f be
       -0.0877372 0.12795345 -0.16307446 -0.18697365
000390 47 ed 2f 3e 8c 74 6a be ae c5 e2 be 73 61 2a be
       0.17180358 -0.22896022 -0.44291443 -0.16638736
0003a0 d3 9b c4 3d 6b 5c c6 bd f5 d4 48 bd c5 0a ee be
       0.096000336 -0.09685596 -0.049031217 -0.46492592
0003b0 b8 88 41 be 19 ba 5e be 0e 63 46 be b8 11 88 3d
       -0.1889981 -0.21750678 -0.19373724 0.066440046
0003c0 f5 02 8b 3d 7a 64 a5 be 6d de 19 be b9 26 5f be
       0.067876734 -0.3230322 -0.15026255 -0.21792115
0003d0 44 3f 2d 3e 81 de d6 bd ae fa f5 3c 7b 04 19 3e
       0.16918665 -0.10491658 0.03002676 0.14943115
0003e0 6b f8 81 bd 02 01 20 bd 3c 29 e7 bc 1e 5b bd bd
       -0.0634621 -0.03906346 -0.028217904 -0.09245895
0003f0 b6 6b 67 bd 77 06 50 bd f6 c5 c8 be 20 d9 74 be
       -0.056499206 -0.050787415 -0.39213532 -0.23910952

input_projection.bias f4 [16]
000000 8c de 22 3e e9 70 eb 3d bb 61 09 3e e3 9f 0b bf
       0.15905207 0.11496145 0.13416187 -0.5454084
000010 2d f9 be be 6c 69 f9 3e 26 41 b7 be f9 2d d7 bd
       -0.3729948 0.48713243 -0.35791892 -0.105068155
000020 54 a2 f6 3e 74 d7 fc 3e a5 be be be 29 0f 01 3f
       0.48170722 0.49383128 -0.37254825 0.5041376
000030 87 6e ed 3b cb 1f e5 bd 4e 92 a3 3c e9 42 d3 be
       0.007245842 -0.11187705 0.019967224 -0.41261986

transformer.layers.0.self_attn.in_proj_weight f4 [48, 16]
000000 2c ee ce 3e fc ef 4c be 19 f7 3c be a8 4f ba 3d
       0.40416086 -0.20013422 -0.18453635 0.090972245
000010 f6 f5 66 bf 51 d0 d9 3e cc 88 d1 be 91 54 78 3d
       -0.90219057 0.42541745 -0.4092468 0.060627524
000020 fe 3b fe 3e bc 62 0e 3f d4 1e 47 be 3e 5c be 3e
       0.49655145 0.55619407 -0.19445354 0.3717975
000030 e9 08 f1 bd 19 18 3d be 6e 1a 3e 3d 1d 59 35 be
       -0.117692776 -0.18466224 0.046411924 -0.17709775
000040 7f 21 6a bd d4 98 2b be 2c 84 d0 3c 21 25 1f be
       -0.05716085 -0.16757518 0.02545365 -0.15541507
000050 f6 58 c8 be 0b 7e af 3e 1d d4 da be 03 be 1d bd
       -0.39130372 0.3427585 -0.42739955 -0.038511287
000060 09 26 95 3e 7b 58 bb 3e 1c c4 4e bd 58 06 8c 3e
       0.2913058 0.36590943 -0.050479993 0.2734859
000070 f9 10 f9 be 09 3c 62 be 09 ca f5 3d bf 39 8c bd
       -0.48645762 -0.22093214 0.12001426 -0.06846952
000080 ae 20 2c be 57 cb 0c 3f 0c e8 14 be e0 60 61 bd
       -0.16809341 0.5499777 -0.14541644 -0.055024028
000090 2b 69 51 3f ce c4 b3 be f9 d0 d1 3e 18 fc 62 be
       0.818011 -0.35111088 0.40979746 -0.22166479
0000a0 44 04 eb bd 1d a4 bd bd 95 cd ef 3d 0c 67 7c be
       -0.11475423 -0.09259818 0.117091335 -0.24648684
0000b0 f4 25 13 3e 1b a9 f5 bd 10 35 50 3e c8 3e c0 be
       0.14369947 -0.11995145 0.20332742 -0.37547898
0000c0 4a dd 3a 3e 2e 75 88 be 5f 63 8e 3e 56 9b ab be
       0.18248478 -0.266519 0.2781019 -0.3351695
0000d0 5a ba e6 3a f0 fb f3 3c 10 f0 1c 3e 3c f0 80 be
       0.0017603145 0.02978322 0.15325952 -0.25183284
0000e0 2e fd 05 be fd 26 5f bd fb 3b 14 3e 01 d0 ae be
       -0.13084862 -0.05448054 0.14476006 -0.3414307
0000f0 1c 06 b2 3e 29 26 9a 3e 35 8a 05 bc 18 31 aa be
       0.34770286 0.3010724 -0.008150627 -0.3324058
000100 b8 f5 39 bf d8 66 79 be d5 a1 be 3e ae bb be 3e
       -0.7264056 -0.24355638 0.37232843 0.37252563
000110 43 8c 96 bd 53 2a 9b 3e 57 6c 97 be 7f f1 03 3e
       -0.073509715 0.30305728 -0.29574844 0.12885092
000120 2f 56 87 3e dc 58 23 3f ee 96 7a be 33 52 d9 bd
       0.2643294 0.63807464 -0.24471638 -0.106113814
000130 c1 3e 68 3d 23 04 c7 bd b0 07 89 3e 2d 17 c5 3e
       0.05670047 -0.09717586 0.26763678 0.38494244
000140 43 b8 f3 3d 91 0b 89 be 55 db 16 bf ef 24 95 3d
       0.119003795 -0.26766637 -0.58928424 0.07282435
000150 de 71 70 3e 52 6b fe be 45 81 2c 3e 0c b9 33 be
       0.23480937 -0.49691254 0.16846187 -0.17551059
000160 e6 3b 2d 3d 81 28 db be 54 53 c0 3e 45 95 72 be
       0.04229345 -0.4280434 0.37563574 -0.23689754
000170 5e 84 ea bd d0 65 2d 3d 1a 9a ce be f2 0c f4 be
       -0.11451028 0.042333424 -0.40351945 -0.47666126
000180 27 2f 9b be 21 85 30 3e 35 b2 e0 3e 80 ea b9 3e
       -0.30309412 0.17238285 0.4388596 0.36311722
000190 b5 8a 89 be e1 73 bb 3e d6 92 2a be ff 31 bd bc
       -0.26863638 0.36611846 -0.16657576 -0.023095129
0001a0 9c 14 a1 3e 3c ab 82 3e 06 cd f1 be 76 4b d4 3e
       0.31461036 0.25521266 -0.47226733 0.41463822
0001b0 b1 e7 8a bc 4c ea 7a 3e db ed 3c be af e0 b8 3e
       -0.016956182 0.2450344 -0.1845011 0.3610892
0001c0 35 c8 bb 3e f0 3f 0b be 02 7e 0e 3e 10 44 bc bd
       0.36676183 -0.13598609 0.13915256 -0.091926694
0001d0 26 c5 19 3e 98 3c 4c be 43 86 fb 3d 23 b7 38 bd
       0.15016612 -0.1994499 0.12281468 -0.045096528
0001e0 7d 8b b8 be 6a 1b b1 be f1 05 a9 3d da 9e ee bd
       -0.3604392 -0.34591228 0.08253086 -0.11651392
0001f0 9e b6 b1 be e0 a0 97 be 98 8a f3 3d b4 07 8d be
       -0.34709638 -0.29614925 0.11891669 -0.2754494
000200 ec eb ff 3c 97 25 5a 3d 67 b4 fc be 11 05 32 3e
       0.031240426 0.053258505 -0.49356386 0.17384745
000210 6a f1 3a be ec 7e 87 be 8d 84 29 3f 23 7a 90 bd
       -0.18256155 -0.2646402 0.6621788 -0.07054546
000220 58 76 0f be b3 4d b7 be 87 6a 11 3b 01 1c 92 3c
       -0.14009988 -0.35801467 0.002218874 0.017835619
000230 d5 19 8c 3e e4 e1 09 3f 95 76 9b bc b7 5e 2d be
       0.27363458 0.53860307 -0.018977443 -0.16930662
000240 8d c5 d7 bd dc 97 85 3d 76 65 2a be 7c a2 e3 3d
       -0.10535727 0.065231055 -0.16640267 0.11114976
000250 fc 0b a3 3e 98 cb a2 bd d8 83 25 3e 77 30 0f bd
       0.3184508 -0.07948989 0.16163576 -0.03495833
000260 62 bb 60 be 4e 0c 89 be 91 93 9e 3e 6c 6b 37 be
       -0.21946481 -0.267672 0.3097196 -0.17912072
000270 b2 25 5b be 7e 46 43 be 4e e1 c8 3d 0c d7 b6 bd
       -0.21401098 -0.1906986 0.098085985 -0.08927736
000280 5a 10 82 3e 70 cc 13 bd ab 7b 42 be 23 65 64 3d
       0.254031 -0.03608364 -0.18992488 0.055760514
000290 56 85 96 3e da 42 cf bd d3 61 19 3e 21 6c dd bd
       0.29398602 -0.10120173 0.14978723 -0.108116396
0002a0 7c 6d 4c be e4 c6 34 bf ef 7a 31 3e 6d 0e 7d be
       -0.1996364 -0.70615983 0.17332052 -0.24712534
0002b0 9b d6 cc 3e 58 ff c4 3d 6d 9b af be 8c 31 b4 3d
       0.4000748 0.096190155 -0.34298268 0.08798513
0002c0 da fd e6 3e 7b 14 33 be 63 6e be bc 91 71 41 bd
       0.45115548 -0.17488281 -0.023245996 -0.047227446
0002d0 01 a6 5a 3e 04 17 38 be 8b af 0d 3e 0e e5 2d be
       0.21352388 -0.1797753 0.13836496 -0.16981909
0002e0 d9 4f 46 be 74 a0 2e be 6e 69 fa 3d 6a 4c d9 be
       -0.19366397 -0.17053396 0.1222714 -0.42441112
0002f0 cf 09 e8 3e 2b b6 c8 3e 17 0f 4a be f0 41 4a be
       0.45319983 0.39201483 -0.19732319 -0.19751716
000300 28 34 2e bd c4 05 4c 3e c5 36 15 3d 85 14 a8 bd
       -0.04253021 0.19924074 0.036429185 -0.08207039
000310 7f 09 c8 be 46 00 c5 bd bd 71 85 be c5 fd d4 3e
       -0.39069745 -0.09619193 -0.26063338 0.4159986
000320 f4 e4 9f 3e 9d b8 9f 3e bf 87 db be ca 51 1b 3f
       0.31229365 0.31195536 -0.42877004 0.60671675
000330 5f 8f bd be 46 e0 a8 bc 93 3a f1 3d 91 8c 04 3e
       -0.37023446 -0.020614754 0.1177875 0.12944247
000340 bf c3 a2 3d e8 ca 78 3e fd 8e e5 3e 9b 27 93 bc
       0.07947492 0.24296153 0.44835654 -0.017963221
000350 87 59 32 bd d5 42 de 3e fa 23 9e be 97 b7 2f 3e
       -0.04354241 0.43410364 -0.30886823 0.17159878
000360 b2 8d ef 3c b1 db 49 3d 68 34 e8 be 3d 2d de 3e
       0.02924237 0.04928178 -0.45352483 0.4339389
000370 a3 5d cf 3c 65 c9 d0 3d 62 da ed bd 58 53 52 3e
       0.025313204 0.10194663 -0.11613919 0.20539606
000380 1d 77 99 3e 80 62 2d 3e 0e e3 ed be 39 59 0a 3e
       0.2997369 0.16932106 -0.4646229 0.13510598
000390 e9 99 90 be 85 a5 41 3e f2 77 ee 3e ff 14 56 be
       -0.28242424 0.18910797 0.46575886 -0.20906447
0003a0 38 45 8d 3d 30 79 a3 be 2a 6f ec 3d ba 0c fc 3d
       0.06897968 -0.31928396 0.1154464 0.12307115
0003b0 8c d6 7f 3e db 3e 66 3e c3 ef 03 3d 06 66 95 be
       0.24984187 0.22484915 0.032211076 -0.291794
0003c0 1e c2 5e 3e 5e 7e 87 bd 58 f2 88 3e db 2f ac bb
       0.21753737 -0.066158995 0.26747394 -0.0052547283
0003d0 d8 7b 39 be 3a eb f7 bc 5b 84 8e bc aa 34 01 be
       -0.18113649 -0.030263532 -0.017397096 -0.12617746
0003e0 9b 9c 2a 3d 2c 81 d4 3e 7b ce ff bb bd 84 f2 3e
       0.041653257 0.415048 -0.007806597 0.47366896
0003f0 9e 64 da 3d 7b 99 18 bd 40 41 9e 3d 37 77 06 be
       0.106637225 -0.037255745 0.07727289 -0.13131414

transformer.layers.0.self_attn.in_proj_bias f4 [48]
000000 e1 66 70 3f 38 7d f4 3e e5 df b2 be da d0 2e bf
       0.9390698 0.47751784 -0.34936443 -0.6828743
000010 58 fe 45 3f 89 ca 64 bf 6d ce 62 3f 65 32 0f bf
       0.7734122 -0.89371544 0.8859623 -0.5593627
000020 00 68 33 bf fd 46 d8 be b0 58 5d bf 9a 8e 1f bf
       -0.70080566 -0.4224166 -0.8646345 -0.6232697
000030 05 28 73 3f 7c 90 50 3f 40 2b 17 bf 86 9b 1d 3f
       0.9498294 0.81470466 -0.5905037 0.61565435
000040 b9 5c 42 3a 06 66 78 39 10 aa 1a ba 10 c7 19 ba
       0.00074143294 0.0002368913 -0.0005899975 -0.00058661494
000050 e4 5a fc 39 52 e6 bf b6 ff 53 1a b9 cb dd c4 b8
       0.00048132904 -5.7190564e-06 -0.00014717875 -9.3873205e-05
000060 fe df 9b b9 dc f2 24 39 47 18 3f 38 c3 65 02 ba
       -0.0002973079 0.00015730731 4.556056e-05 -0.000497427
000070 d4 ad fa b9 20 ff d2 b8 09 0a 9f 39 04 96 24 b9
       -0.00047813228 -0.00010061101 0.0003033432 -0.00015696144
000080 06 52 c4 bc 1a f2 e8 3d a5 bc de 3d 5b 2a f9 bb
       -0.023964893 0.11374302 0.10875825 -0.007603926
000090 bd 2b 95 3c f6 49 be 3e 15 b9 80 3e 24 35 0d 3c
       0.018209333 0.37165803 0.25141206 0.008618627
0000a0 07 d9 91 3c 27 88 4d be ca cd 20 3e 49 62 98 be
       0.017803682 -0.20071469 0.15703502 -0.29762486
0000b0 c2 aa 5f 3e 26 ab 28 be 89 fa 80 bd 4a e6 be bd
       0.21842483 -0.16471538 -0.06297786 -0.09321268

transformer.layers.0.self_attn.out_proj.weight f4 [16, 16]
000000 e9 a9 e2 3c 0f d8 52 bc 30 be 2a 3d 4b 4a 5f bd
       0.02766891 -0.012868895 0.041685283 -0.05451421
000010 30 8e 80 b9 7b 26 8b bd 55 01 28 3d b1 d4 68 3c
       -0.0002452 -0.06794449 0.041016895 0.014210866
000020 a0 59 41 bc 2f 1a b8 3d a3 f3 7b 3d e6 cc 16 3d
       -0.011801153 0.08989369 0.061511647 0.0368165
000030 f7 ba 37 3d 3d 46 99 bc 81 48 17 3b 73 2e 5a bd
       0.044856038 -0.01871025 0.0023083987 -0.053266954
000040 2e 5a f4 bc 7d 5c 58 bd 6f 49 0e 3c ff a6 86 3c
       -0.029828157 -0.05282258 0.0086845 0.016437052
000050 40 f9 58 3d b4 fe 8b 3c 21 6b f7 3b 59 01 dc 3c
       0.05297208 0.017089225 0.0075506126 0.026856111
000060 38 9a b8 3c 54 0a 85 bc e8 a5 60 3d 35 0e df bb
       0.022534475 -0.016240276 0.05484572 -0.0068071135
000070 39 7c 8b 3c 14 f5 a7 bb 43 21 35 3d 8b 97 97 bb
       0.017027007 -0.005125651 0.044221174 -0.0046262196
000080 29 66 12 bd 61 43 b9 bc 6b 2b bf bc 11 e2 62 bc
       -0.03574196 -0.022615137 -0.023336133 -0.013847844
000090 8d c9 f7 3c 1a 2b 6b bd 53 fd de bb 5c 1d 80 3d
       0.030247474 -0.05741415 -0.006805101 0.062556
0000a0 d1 6a aa bc 84 ee 9b 3d a7 b4 e7 bb d8 6e 7b 3d
       -0.020802887 0.076138526 -0.007071096 0.061385006
0000b0 c8 1a 48 3d ea 61 2d bc 11 5d 04 bd 83 6e f7 3c
       0.048853666 -0.010582427 -0.032315318 0.030204063
0000c0 72 fe 53 3d 63 14 29 bd 2c 05 55 3b a9 1a d7 3c
       0.05175633 -0.041279208 0.0032504303 0.02625783
0000d0 37 c9 28 bd d4 10 58 3c 74 dd da bb 27 1b 99 3b
       -0.04120752 0.013187606 -0.0066792313 0.0046724263
0000e0 45 a1 6b 3d 4c d3 98 3c 45 a5 e8 3c 08 5b 9a 3d
       0.057526845 0.018655442 0.02839912 0.07536894
0000f0 56 c9 26 bd a4 80 ab 3c 69 27 6c bd 4d 49 61 3d
       -0.040719353 0.020935364 -0.057654772 0.055001546
000100 0f a7 d2 3c ae 78 90 3c 71 33 c9 bc d0 df d1 3b
       0.025714425 0.01763567 -0.024560662 0.0064048544
000110 68 52 19 bc 41 2d 16 be 8e 14 3f 3b 60 95 46 bd
       -0.009358026 -0.146657 0.0029156539 -0.0484823
000120 27 2c 63 bd 45 7b f5 3c a8 e0 73 bc cc f3 71 3d
       -0.05546203 0.029966006 -0.014885105 0.059070393
000130 66 1b 6e bd 09 30 88 3c 46 e6 2e 3c bb 9e 6e 3d
       -0.058131598 0.016624467 0.010675019 0.058256846
000140 1a 27 d7 bb d9 08 65 3c b7 43 26 3c 0c 8e d8 bc
       -0.0065659406 0.01397916 0.01014798 -0.02643492
000150 e3 bb 24 3d bb 41 26 3d 17 0c 24 3d 8c b6 d5 bc
       0.040218245 0.04059003 0.040050592 -0.026088022
000160 88 c8 1b bd bb c3 11 bd a0 1b 36 3d f7 2c f9 3c
       -0.03803304 -0.035587054 0.04445994 0.030416949
000170 f3 01 ee 3c 11 b6 ca bc ef 96 3b 3b 6c 95 03 3d
       0.029053664 -0.02474502 0.00286239 0.03212492
000180 50 34 10 3d 0d 83 8c bd c3 cb 18 3d b1 15 0d bd
       0.03520614 -0.068609335 0.037303697 -0.034444515
000190 9f 79 e3 3c d7 66 13 3c 7b 06 4f bd c9 d3 5f bc
       0.027767954 0.008996687 -0.05054329 -0.013661333
0001a0 08 cb c7 3d c2 69 9d bb 2e ab 98 bd 36 c2 89 3d
       0.09755522 -0.004803867 -0.07454525 0.06726496
0001b0 97 b7 73 3b d4 8f 78 ba 03 52 d7 bc 9f 39 55 bd
       0.0037188285 -0.0009481881 -0.026284223 -0.052056905
0001c0 2b a1 23 bd 93 94 42 3c a0 b2 38 bc 60 ef d5 3c
       -0.039948624 0.011876243 -0.011273056 0.02611512
0001d0 12 b9 55 bc 52 d0 63 bd ee 3a 8d bd 16 c6 e6 bc
       -0.0130446125 -0.05561859 -0.068960056 -0.028170627
0001e0 f3 6f 23 3c 91 2f 18 3d b9 6d af bd 6e 6a 71 bd
       0.009975421 0.037154738 -0.0856585 -0.05893939
0001f0 e1 87 78 bc 5c 2a 4f bd 54 8a a6 3b 4d 62 8d 3b
       -0.015169115 -0.050577506 0.005082408 0.004314697
000200 9f c8 83 3c 72 b0 4b bc d8 91 6d 3c b9 15 c8 3c
       0.016086875 -0.012432205 0.014500104 0.02442442
000210 e0 42 00 3d d4 97 e1 3c 12 75 eb bc 9a 35 87 bb
       0.031313777 0.027538218 -0.028742347 -0.004126263
000220 69 a4 11 bc f4 a2 51 bc 11 cb 99 3d 33 b4 ab bd
       -0.008889296 -0.012795199 0.07509435 -0.0838398
000230 83 cb 5c 3d a5 37 35 bd 27 31 43 bd 83 55 22 bd
       0.05390502 -0.04424252 -0.047654297 -0.03963233
000240 16 64 36 bd eb d4 00 3c 62 36 6d 3c 57 6e ec 3c
       -0.044529043 0.007863264 0.014478298 0.028861208
000250 b5 ef f2 3c 6d e7 5e 3d 6d c3 81 bc 21 d7 37 bd
       0.029655317 0.054419924 -0.015840257 -0.044882897
000260 fd d4 44 bb d8 17 80 bd 1d 5d ee 3c d2 bf 51 bd
       -0.0030034177 -0.06254548 0.029097134 -0.051208325
000270 49 2a b5 3d 58 24 96 bd 23 ec 2c bd 5f 04 f5 bc
       0.08845956 -0.07331151 -0.042217385 -0.02990931
000280 bc 0f b1 bc 65 64 8a 3d 65 19 5d bc c0 ec 5c bd
       -0.021613948 0.0675743 -0.013494824 -0.05393672
000290 cc 2c 22 3d b2 f4 d2 bd eb 13 4d 3d f6 18 9d bd
       0.039593503 -0.10300578 0.050067823 -0.076707765
0002a0 87 f1 a7 3c 4d 64 99 bc f3 9a 9d 3c 18 c5 62 3d
       0.020500911 -0.018724585 0.019238925 0.055363744
0002b0 85 62 68 bd 29 e9 10 3d 45 df 10 bd 5e fa fc 3c
       -0.05673458 0.03537861 -0.035369176 0.030881103
0002c0 e8 f1 17 3d de 16 29 3d 90 81 d3 bc cf 0d e2 bb
       0.037095934 0.041281573 -0.025818616 -0.006898619
0002d0 13 42 9b bb 5b 08 06 3d 61 37 e3 3d 24 c9 fe bb
       -0.0047381013 0.032722812 0.11094547 -0.0077754427
0002e0 5b cb 59 bb c0 ec 95 bc 01 05 86 3b 4e 27 13 be
       -0.0033232782 -0.018301368 0.004089952 -0.14370462
0002f0 2a 00 1e 3c d8 42 a1 3d 0b d0 fa 3c 65 b7 ae bc
       0.009643594 0.078740776 0.03061678 -0.021327684
000300 d0 a3 43 3c 14 fa 94 3b 8f cf 9c bd 7b fc 66 3c
       0.011940911 0.004546413 -0.07656776 0.014098282
000310 8d ff 5f bd da ff 77 bc c8 26 8d bc 76 55 98 3d
       -0.05468707 -0.015136683 -0.017230406 0.074381754
000320 46 54 72 bd 33 ce c5 bc a2 8c 40 3c 88 8d 24 3a
       -0.0591624 -0.024146175 0.0117522795 0.00062771933
000330 be 06 2d bd c7 78 02 bc 53 9d 45 3d 5b 3a 4d 3d
       -0.042242758 -0.007963366 0.04824574 0.05010448
000340 44 4d 1d bc f7 95 58 bd 3e 0f 9c ba 10 62 e4 3a
       -0.009600941 -0.052877393 -0.0011906398 0.0017424244
000350 88 65 7e bd e4 30 9c 3c 38 20 9b bd 6a 2f 64 3d
       -0.062108546 0.019066282 -0.075745046 0.05570928
000360 13 81 7c bc 5b 29 18 bc 6a 26 0c be 2e 12 a4 3c
       -0.015411633 -0.009287204 -0.13686529 0.0200282
000370 64 5a 20 3d a1 db 8d bd 3c 19 0a 3c 5a f2 5d bd
       0.039148703 -0.069266565 0.008428868 -0.054186203
000380 83 06 d3 3c f6 0a 50 bc 54 ee 95 3b 51 6c 44 3c
       0.025759941 -0.012697926 0.00457553 0.011988715
000390 c4 f9 37 3d a0 36 09 3d 27 4a a5 bd 82 8d 9f bd
       0.04491593 0.03349936 -0.08070784 -0.07790662
0003a0 77 05 8c bc f8 bd 8e 3d 6e 46 1b bb 74 4a 92 bd
       -0.01709245 0.069698274 -0.0023693102 -0.07143107
0003b0 cc 30 c8 bc 64 88 90 bc b0 3b 26 3d f0 c3 32 bd
       -0.02443733 -0.017643161 0.040584266 -0.04364389
0003c0 49 2f 7c 3c 24 b8 a0 bc 31 72 02 bd 6e 45 d8 3c
       0.015392133 -0.019619055 -0.031847183 0.026400294
0003d0 30 9e bf 3c 55 24 fc 3b fa 68 e8 3c 24 5e a9 bc
       0.02339086 0.007694761 0.02837037 -0.020674773
0003e0 48 37 27 3d 72 57 eb bc 3c 46 f9 bc 53 d2 a3 bc
       0.040824205 -0.02872822 -0.030428998 -0.019997751
0003f0 3f 5f ac 3c 2e 5f 1f bc fc 52 03 3d 41 9e 5e 3d
       0.02104151 -0.009727282 0.032061562 0.05435014

transformer.layers.0.self_attn.out_proj.bias f4 [16]
000000 73 5e 4a bc 6a 09 99 3b f4 47 39 3c fe 75 85 3b
       -0.01235162 0.0046703117 0.011308659 0.0040729037
000010 84 11 15 bb 1d 96 6d ba 96 da be 3b f7 b3 55 bb
       -0.0022746036 -0.0009063201 0.0058243973 -0.0032608488
000020 c8 df 5c 3c b4 19 e6 bb 69 e1 b7 3b 79 a9 c7 3b
       0.013481088 -0.007022107 0.005611588 0.0060932008
000030 eb 91 e0 3a 92 51 c9 bb 99 2b ba ba 57 bb e3 bb
       0.0017133331 -0.006143757 -0.0014203667 -0.006949823

transformer.layers.0.linear1.weight f4 [2048, 16]
000000 42 b7 06 3f fe 10 e8 bd 7f 0b 06 be 3c 61 32 3e
       0.5262338 -0.11331366 -0.13090323 0.17419904
000010 f1 c7 3f 3f 92 a6 a7 be ff 8b bd be 75 fb 6b 3f
       0.7491446 -0.3274427 -0.3702087 0.9218057
000020 38 6f 1e bf b7 4e fb 3d 0c 14 8f 3e ff 43 6b be
       -0.61888456 0.12270873 0.27944982 -0.22975157
000030 04 3e 84 bd 16 93 8f bd d4 7f 1c be 7e ee 41 bf
       -0.06457141 -0.07010476 -0.15283138 -0.75754535
000040 76 ed 11 3f 51 1e 5b 3e a4 8d 10 3e 2b 1d 3a 3e
       0.5700296 0.21398284 0.14116532 0.18175189
000050 27 e7 65 3e af 67 f5 3e e0 2e b9 be 1a 2e 17 bf
       0.22451459 0.47930667 -0.36168575 -0.5905472
000060 40 4d c4 be bb f8 b9 be 8c 7b 0b 3e c4 f6 b0 bd
       -0.38340187 -0.3632258 0.13621348 -0.08640817
000070 f3 6b 51 be 73 eb 64 bc de c3 f4 be db 0b 44 3d
       -0.20451336 -0.013972151 -0.47805685 0.04786287
000080 68 87 97 3e e0 1b 91 3d 4d 97 c3 3e 1f 88 2b bf
       0.29595494 0.07085395 0.3820137 -0.6700458
000090 b9 c2 54 3f 5e bb f9 be f1 54 cb be 37 a5 a9 3e
       0.83109623 -0.48775762 -0.39713243 0.3313386
0000a0 a4 ff 28 3d e1 0d 8e be e4 e4 5f bd 73 c7 dc bd
       0.041259423 -0.27744964 -0.054661646 -0.107802294
0000b0 12 1f 67 3e 5c b4 ed 3e 7d be 0d be b2 48 87 be
       0.22570446 0.46426666 -0.13842197 -0.2642265
0000c0 05 41 00 be 44 e5 66 bf 15 65 a9 3e ed c7 b1 3d
       -0.12524803 -0.9019358 0.33084932 0.08680711
0000d0 c0 59 3d 3f f9 53 36 be 7f 4d e0 bd bb 9d 4e be
       0.7396507 -0.1780547 -0.10952281 -0.20177357
0000e0 4a 35 8e 3e 3f cd c5 bc 82 42 14 3f 89 91 51 be
       0.2777503 -0.02414572 0.5791398 -0.20465674
0000f0 23 b9 bc be 22 6c 54 3e 94 e5 96 bd 0b f8 57 bf
       -0.36859998 0.20744374 -0.07368007 -0.8436286
000100 79 e5 ae 3d 9f 35 97 3e 15 6a cd bd cd 69 05 be
       0.08539862 0.29533097 -0.10029999 -0.13028641
000110 88 d8 3b be d0 a3 30 be 5e 30 2b 3f 79 8f 0a 3f
       -0.18344319 -0.1724999 0.6687068 0.5412517
000120 78 0e 38 be fc cb cb 3d 4b 54 11 bd 36 bb 80 bd
       -0.1797427 0.09951016 -0.03548078 -0.06285708
000130 eb 92 23 bf 80 3e 54 3e 2c 29 79 3e a7 72 2f be
       -0.63896054 0.20726967 0.24332112 -0.1713358
000140 5e a2 07 be 27 27 c3 3e 35 4f 0b 3e 03 7d 86 3e
       -0.13245532 0.38115808 0.13604434 0.2626725
000150 5a 4b c0 be f4 54 49 bf 40 29 6c be fc 1b e2 3e
       -0.3755749 -0.78645253 -0.2306261 0.44161975
000160 f6 af 04 bf 85 43 93 be 9d 6f d8 be e6 8e 10 bf
       -0.51830995 -0.2876245 -0.42272654 -0.56468046
000170 02 2e 74 3f ab b8 16 3f 4a 34 ad 3e 1f 57 94 3d
       0.953827 0.5887553 0.33828956 0.072431795
000180 4a d5 22 3f 7a 88 57 3e 7e f9 75 3e 02 a7 64 be
       0.63606703 0.21048155 0.24020955 -0.22329333
000190 9b 24 f0 3d bb 79 17 bf c0 8b 70 3d 6a 0d 1c be
       0.11725732 -0.5917012 0.058727026 -0.15239492
0001a0 60 fe 28 3d 90 fe 9b be 99 7e 6f 3f 49 35 b8 3e
       0.041258216 -0.30467653 0.9355255 0.35978153
0001b0 36 66 a6 be 9c 5c f3 be b4 9f 04 3e b5 e5 2d bf
       -0.32499856 -0.47531593 0.12951547 -0.6792863
0001c0 91 92 20 3f ef b3 73 3e 48 86 28 bf 07 9c ec 3e
       0.6272364 0.23799108 -0.65829897 0.4621279
0001d0 42 a7 94 bc 78 41 a3 be 81 5c 24 3f 95 00 8a be
       -0.018146161 -0.31885886 0.6420365 -0.2695357
0001e0 fd a3 3e 3e 5f 27 ca be 31 b4 81 3e db 20 19 bf
       0.18617244 -0.39483163 0.25332788 -0.5981576
0001f0 13 68 5f 3f fc 64 07 bf 3c c6 22 bf 22 a5 ea be
       0.8726818 -0.52888465 -0.6358373 -0.4582911
000200 fe bb da be df 3f 2f 3e f8 61 bd be 4d 23 da 3e
       -0.42721552 0.17114209 -0.36988807 0.42605057
000210 d9 c2 70 3d f5 5c 8a bf cd 15 e9 3b 34 3d 5c be
       0.05877957 -1.0809618 0.0071131946 -0.21507722
000220 3f c9 4c bf f3 76 06 be cf 5b 10 3e 42 fa 61 3e
       -0.7999458 -0.13131313 0.14097522 0.22068122
000230 60 8a 2f 3e 53 8e b1 be 87 d3 0a be 2c 43 83 be
       0.1714263 -0.34678897 -0.13557254 -0.25637186
000240 61 4e d3 3d b6 9a 25 bf 0b be 15 3f 30 96 b3 be
       0.10317684 -0.64689195 0.5849311 -0.3507552
000250 0a c5 68 be 1b 29 5c 3d 71 22 3f 3f 74 4c ca 3e
       -0.22731414 0.05375014 0.7466193 0.39511454
000260 b7 3d 05 be a9 76 9b 3d 42 e8 0f 3f c1 5d 0a bf
       -0.13011824 0.07590992 0.5621377 -0.5404931
000270 71 55 27 bd 49 af c8 be a0 38 2d 3d 45 1a a2 3e
       -0.040852968 -0.39196232 0.04229033 0.31660667
000280 9b 03 2b 3f 80 f7 2f 3e 59 cb c1 3e f1 c9 aa bd
       0.66802377 0.17184258 0.37850454 -0.083392985
000290 75 df 8d 3e 3c 86 3f 3e ec 35 3c be 5b 3f da bc
       0.27709547 0.1870355 -0.18379945 -0.026641538
0002a0 af 7a cb be 39 ff f0 be 6d fa 72 be 54 a2 17 3e
       -0.39742038 -0.4706972 -0.23728342 0.14808017
0002b0 84 a4 dd bc 5c 5d 04 3f eb 2a 47 bf 0d 0f 39 bd
       -0.027055986 0.51704955 -0.7779986 -0.04518037
0002c0 dd ba ae be 7a 5e cd be 36 91 85 3e 67 df af be
       -0.3412694 -0.40111142 0.2608735 -0.3435013
0002d0 a5 28 e2 3c 3f 19 0c bd ed ec b3 3e 7f c8 3b 3e
       0.027607271 -0.034203764 0.35141698 0.18338202
0002e0 8b 88 e5 be 31 a3 34 be 35 4a 6c 3f 6c 26 5f be
       -0.44830737 -0.17640378 0.9230073 -0.21792
0002f0 bf 9f 0d 3e 8f 77 7e 3d 08 b8 9e be 31 c2 19 be
       0.1383047 0.06212574 -0.3099978 -0.15015484
000300 75 78 a7 3e 70 db f8 3e 9b f1 4d 3e cb 76 91 3d
       0.3270909 0.48604918 0.20111696 0.07102736
000310 0a f3 e9 3d 4e 26 f6 be 88 01 e8 3d 69 e8 48 bd
       0.11423309 -0.480761 0.11328417 -0.04904977
000320 e3 62 f5 be 9e 3a 70 be 2a 5f 05 bf 79 26 3a 3e
       -0.47927007 -0.2345986 -0.52098334 0.18178739
000330 9a 2c 8d 3e 85 c0 ba be 6b dc 37 3f 92 5c 36 3e
       0.2757309 -0.36475006 0.71820706 0.1780875
000340 93 7b ed 3e 90 27 18 3e ec 54 e4 3e 77 94 20 bf
       0.46383342 0.14858842 0.4459604 -0.6272654
000350 b4 f7 c3 3d 32 d8 63 be fc b3 cd bd 90 57 5b 3e
       0.0956873 -0.2225044 -0.10044095 0.21420121
000360 e9 a4 18 bf 33 8a 06 bf 1d 3f f2 3e d0 12 0c 3f
       -0.5962663 -0.52554625 0.47313777 0.54716206
000370 6c ca bf be c0 11 de be 24 e8 69 3e 94 c4 9a bd
       -0.37459123 -0.43372917 0.22842461 -0.075570256
000380 ec 50 15 bf 76 41 40 be 0e da 51 3f 16 4d ac be
       -0.583266 -0.18774971 0.8197335 -0.33652562
000390 8a d2 c2 3e a5 a8 c0 3b 32 27 3f be 10 e0 8b 3e
       0.38051254 0.005879479 -0.18667296 0.27319384
0003a0 b0 03 8d be ec 6e 05 be 3e 4a 99 3d cf 67 4a 3d
       -0.27541876 -0.13030595 0.07484864 0.049415406
0003b0 b4 cd 99 3e 36 c2 ce 3e 4d 24 bf be 2c 14 73 bd
       0.30039752 0.40382546 -0.37332383 -0.05934541
0003c0 3d 9e 52 be 56 af 5b 3e a8 b7 dc be fc f8 8f be
       -0.20568176 0.21453604 -0.4310887 -0.28119648
0003d0 f0 84 ac 3e ff 3f 93 3e 3f 72 54 3e 02 3c 39 3f
       0.33695173 0.28759763 0.20746706 0.7235719
0003e0 3b df 10 bf 9a d9 30 be 2d b3 e1 3e 0d 60 c3 3d
       -0.5659062 -0.17270508 0.44082013 0.095398046
0003f0 c9 44 d4 3d dd 02 55 3e 25 32 99 be f3 d3 05 bf
       0.10364682 0.20801874 -0.2992107 -0.52276534

transformer.layers.0.linear1.bias f4 [2048]
000000 93 4a 9f 3c ad bf d5 bd b5 09 88 be 07 8c 53 be
       0.01944474 -0.1043695 -0.26569906 -0.20658885
000010 34 e7 cc be 1d 4b 60 bd 75 9f a4 be 5d a8 40 be
       -0.40020144 -0.054759134 -0.32152906 -0.18814225
000020 1e f3 b9 be 72 34 ea bd 61 45 db be 3d 16 6f be
       -0.36318296 -0.114357844 -0.4282637 -0.23348327
000030 2b cc 82 be 99 64 09 be d2 78 a1 be e8 36 ed bd
       -0.25546393 -0.13417281 -0.3153749 -0.11582738
000040 50 8e 82 be 76 19 9f be 26 4b 9a 3d d6 83 62 be
       -0.254992 -0.31074113 0.07533865 -0.22120604
000050 a5 f1 ff bd 0d 4b 9f bd 3e df 5f bd 69 87 80 be
       -0.12497262 -0.07777987 -0.05465626 -0.2510331
000060 21 49 ca be d5 f9 4f be 20 42 d1 bd 13 b1 ed be
       -0.39508918 -0.20310147 -0.102176905 -0.4642416
000070 57 7a 1d be 2a ef a1 bc b1 06 be be 16 1e 92 be
       -0.153787 -0.019767363 -0.3711448 -0.2853858
000080 ae 1d 98 3d 8b e7 2f bd a1 ef 17 3e 93 19 f9 bc
       0.07427536 -0.042945426 0.14837505 -0.030407703
000090 36 ee b1 3d b1 5a a3 be 13 1f 4e 3e eb ab 12 bf
       0.08688013 -0.3190513 0.20129041 -0.57293576
0000a0 6b 94 af be d8 13 86 be e0 0e bd be eb 56 8a be
       -0.3429292 -0.26187015 -0.3692541 -0.27019438
0000b0 b9 39 bc be e5 c3 09 be 64 95 c0 be 07 fc 6a bd
       -0.3676279 -0.13453634 -0.37613976 -0.05736926
0000c0 ec 01 6c be d9 db c0 be e9 29 58 be 4e 0c 62 3d
       -0.23047608 -0.3766773 -0.21109737 0.055187516
0000d0 c2 eb 9e bd e4 9f de 3c 1e 18 47 3b eb 59 02 be
       -0.07759811 0.027175851 0.0030379365 -0.12729613
0000e0 cc 18 b0 be b2 7f eb be cc c6 90 be 6d 24 05 be
       -0.3439392 -0.4599586 -0.2827667 -0.13002177
0000f0 6b 0c 13 be 5f 47 40 be 2f 83 e7 be 9d 3b fe 3d
       -0.14360206 -0.18777226 -0.45217273 0.12413714
000100 50 52 90 be b9 a4 e4 bd d1 58 3f be 83 df e9 be
       -0.281878 -0.11164231 -0.18686225 -0.45678338
000110 0c 3f 4e be 54 f2 55 be 2e 88 4b bd b3 bd 86 be
       -0.20141238 -0.20893222 -0.049690418 -0.26316604
000120 e4 72 03 bf 3a c4 58 be a8 43 0d 3d bc 63 ba bc
       -0.51347184 -0.21168604 0.03448835 -0.022752635
000130 bc ca 77 be d0 81 12 bf 84 11 ac be 2c 35 1d be
       -0.24198431 -0.5722933 -0.33607113 -0.15352315
000140 28 af 9b be cf e1 a4 be 6d da b0 be 6d 05 87 be
       -0.3040707 -0.32203528 -0.34541646 -0.26371327
000150 73 74 8e bd f8 de 04 bd c1 cd 5e be 97 37 0b bf
       -0.06955805 -0.032439202 -0.21758176 -0.543817
000160 e6 9d d8 3d 63 fe 75 bd ea 37 83 3e 84 4d a4 be
       0.10576992 -0.060057055 0.25628597 -0.3209039
000170 d1 5a 3a 3e 3d aa ab be d7 ed ef be b3 89 7e be
       0.18198706 -0.3352832 -0.46861145 -0.24857216
000180 88 0d 56 3d be 03 7e 3d 7c eb e7 3d d2 e3 ed be
       0.052259 0.062015288 0.11324212 -0.46462876
000190 ff 42 89 be 68 54 69 be 90 6f 72 3c 4c 7a a7 be
       -0.26808926 -0.22786105 0.014797106 -0.32710493
0001a0 43 04 b5 ba 21 7c e6 be 63 55 51 be ff f0 c0 be
       -0.0013810474 -0.45016578 -0.20442729 -0.37683865
0001b0 fd f1 3b be 54 c0 73 be 88 f8 43 be dc 40 cc 3d
       -0.1835403 -0.23803836 -0.19137776 0.099733084
0001c0 eb 70 4f 3d 8e 2a 27 bd 3b 10 22 bf 8f 18 49 3d
       0.050644796 -0.040812068 -0.63306016 0.049095687
0001d0 a3 cb 49 be ef c8 a0 be 23 5c b9 be be fa a8 be
       -0.19706587 -0.314033 -0.36203107 -0.330038
0001e0 a7 c3 1e bd 64 08 c8 bd 97 0f b0 bd fd ec f8 bd
       -0.038760807 -0.097672254 -0.085967235 -0.12154577
0001f0 bc f8 ce be 3f 28 c8 bc fb e6 b3 bd 4c b7 14 bf
       -0.40424144 -0.024433253 -0.087842904 -0.5809219
000200 ee b2 21 be 89 31 b1 be 68 14 7b be ac 47 e4 bd
       -0.15790913 -0.34608105 -0.24519503 -0.11146483
000210 3a d1 b9 bd 5e d3 5d bd b4 a2 fa bd d7 01 cb be
       -0.0907311 -0.054156654 -0.122380644 -0.3964984
000220 56 db 55 bd cd 9a 8f be 4c 20 ec 3c 1c 3c ee be
       -0.05221113 -0.2804779 0.028823994 -0.46530235
000230 64 57 9b be 92 01 07 3e e3 6d 1c be 13 fe 0e bf
       -0.3034011 0.13184193 -0.15276293 -0.55856436
000240 c7 f4 b0 be 04 71 5d be 11 75 fc bd dd e3 51 be
       -0.3456175 -0.21625143 -0.12327016 -0.20497079
000250 f5 47 36 be 35 2d 04 bd 1e 44 31 be a3 74 2d 3c
       -0.17800887 -0.032269675 -0.17311141 0.01058689
000260 be 7c d5 3d fd 74 c3 bc 25 8c ef be 83 76 87 be
       0.10424183 -0.023859495 -0.4678661 -0.26457605
000270 e3 0b 3e be a8 46 d5 be 9a f8 08 3d e0 7f 8c be
       -0.18559222 -0.4165547 0.03344021 -0.2744131
000280 d5 a1 b3 be 41 cd e4 be ce b6 dc 3c 38 fd 09 be
       -0.35084406 -0.44687846 0.026942637 -0.13475502
000290 41 88 49 be bf 16 c5 be d3 80 af be bf c2 88 be
       -0.19680883 -0.38493916 -0.34277973 -0.2671108
0002a0 c3 cb 9c be 92 e8 3a bc e5 64 d2 be a1 1b 83 be
       -0.30624208 -0.011407988 -0.410926 -0.25607017
0002b0 d8 06 12 bf 5a 94 29 be 3f 16 81 bd 00 1d 7b 3d
       -0.5704169 -0.16560498 -0.06303071 0.061306953
0002c0 5a a6 1a bd a9 ad 45 be a1 e7 f7 3c 61 4a 39 bd
       -0.0377563 -0.19304527 0.030261816 -0.04523695
0002d0 db 1d 14 be 22 6a ad 3e cf eb d1 3d ed 4e 3f be
       -0.14464514 0.33870035 0.10250055 -0.18682452
0002e0 00 5a 0e be ff d7 21 be 6d 4b 04 bf 47 74 98 be
       -0.1390152 -0.15805052 -0.5167759 -0.29776213
0002f0 55 7c bb be 74 43 87 be 24 88 d1 be 4f 8a 42 bd
       -0.36618295 -0.2641865 -0.4092418 -0.047495183
000300 ef 8e ce be 1c 70 cc be af a5 d8 be 92 03 f4 be
       -0.40343425 -0.39929283 -0.42313907 -0.47658974
000310 68 7e 89 bd 24 26 39 be 71 50 5a be e1 de 8f be
       -0.06713563 -0.18080956 -0.21319748 -0.2809973
000320 70 33 30 bf 2c 8b 3c be 2c bb 67 be ab 0c 36 bc
       -0.6882849 -0.18412465 -0.22629994 -0.011111419
000330 fa f7 e8 bd 59 0c bf bd e6 0e 5e bd 2f 56 db bd
       -0.11375423 -0.09328527 -0.054213427 -0.107097976
000340 5f ba b0 bd ad 48 01 be 23 0f 4c be 01 ea 95 3c
       -0.086292975 -0.1262538 -0.19927649 0.018300058
000350 71 08 27 3e 1b af 2b be a6 2c c0 be 73 fa 1a be
       0.16311814 -0.16766016 -0.37534064 -0.15134601
000360 c5 65 69 be 20 5f 0b bf 5b 08 4d be 88 3f 74 be
       -0.22792728 -0.54442024 -0.20022719 -0.2385236
000370 af 50 b9 be 5e 85 24 be 85 8a 18 be 3d 99 89 be
       -0.3619437 -0.160665 -0.14896591 -0.26874724
000380 11 78 99 be 20 ce 68 be 22 17 d9 bd 7f 90 37 be
       -0.29974416 -0.2273488 -0.10600115 -0.17926215
000390 1d 1e a6 be 10 59 aa be de bf 51 bd a4 51 a0 bd
       -0.3244485 -0.33271074 -0.05120837 -0.07828072
0003a0 e8 40 6f be 35 81 9d bd 18 85 15 be 7f 59 e0 be
       -0.23364604 -0.0769066 -0.14601552 -0.4381828
0003b0 2e 7a 9a be af 3c 57 3a be bd c6 3d 76 8e a2 be
       -0.3017134 0.00082106417 0.09704159 -0.31749314
0003c0 51 58 12 bf 14 99 d2 be 33 ef 0e be 6f f6 31 bd
       -0.5716601 -0.41132414 -0.13958435 -0.043447908
0003d0 ad 24 df be 1a 5e e9 bd 96 de 6a be 58 28 2c 3e
       -0.4358267 -0.113949016 -0.22936472 0.16812265
0003e0 35 bd 40 be b5 a9 ad bc a0 a5 10 bf c9 e2 26 bd
       -0.18822177 -0.021199087 -0.56502724 -0.040743623
0003f0 c2 9c 6b bd 33 75 d4 bd 30 42 2c bd 12 96 46 be
       -0.057522543 -0.103739165 -0.04205531 -0.19393185

transformer.layers.0.linear2.weight f4 [16, 2048]
000000 22 ac c5 3e ea c8 3d be c0 88 92 3e e9 31 a2 be
       0.3860789 -0.18533674 0.28619957 -0.31678703
000010 d1 65 ad 3e 3a e9 15 3e c7 17 ca be 33 0f 96 bf
       0.33866742 0.1463975 -0.39471266 -1.1723388
000020 16 5c 1e 3e 01 2f 4f bd 4f 6e aa bd 86 53 1a be
       0.15464815 -0.050581936 -0.08321821 -0.15070924
000030 ec 94 ba 3c 9a b0 97 be c3 3a 03 be c2 47 5c bd
       0.02277609 -0.29626924 -0.12815385 -0.05377937
000040 71 51 05 3f dd c7 19 be 78 8f 9c be 57 a7 db 3e
       0.52077395 -0.15017648 -0.30578208 0.42901108
000050 a8 5c 70 be ee ea 1a bf 1c 25 2a 3e 39 b1 4d 3f
       -0.23472846 -0.60514724 0.16615719 0.80348545
000060 f1 7b 07 be f4 06 46 be 84 58 1f bf 2b 89 8f 3e
       -0.13230874 -0.1933859 -0.6224444 0.28034338
000070 33 17 88 be 97 f4 39 3f 17 3d 36 3f 4b 3d 04 bb
       -0.265802 0.7263884 0.71186966 -0.0020178135
000080 c1 bf 03 bf b4 0f c5 3d ba db ea 3e 56 91 c7 be
       -0.5146447 0.09622136 0.45870763 -0.3897807
000090 eb 87 b5 be c5 42 02 bf 1b 20 19 bf 9f 1f 9a be
       -0.3545526 -0.5088313 -0.59814614 -0.3010225
0000a0 7d f7 fa be 59 4f 7a be 8c fb 3e 3e 8f 95 2c be
       -0.49016944 -0.24444331 0.18650645 -0.16853927
0000b0 39 f1 6d be e6 da a3 be 97 b9 20 bf 90 2a 12 3e
       -0.2323655 -0.32002944 -0.6278319 0.14274049
0000c0 73 d6 d4 3c ea f4 32 bf 3f 46 79 3e 6f 4c 54 3f
       0.025981164 -0.6990496 0.24343203 0.8292913
0000d0 1c 63 b4 be 0c e8 ee 3c f3 3e ab be 95 11 d9 bd
       -0.35231864 0.029163383 -0.33446464 -0.10599057
0000e0 eb 0d d6 3d 66 03 ae be 90 fc 2a be ce ea cc be
       0.104518734 -0.33986968 -0.16697907 -0.40022892
0000f0 1a 13 ac 3c f2 79 1e bf 26 fa eb bd 3e bd 0a 3d
       0.021005202 -0.61904824 -0.115223214 0.03387188
000100 85 13 00 3f f4 8d 01 3e df 1d e6 be aa d2 0c 3f
       0.50029784 0.12651807 -0.44944665 0.5500895
000110 a4 33 7b 3e d7 cb 86 3d d6 71 23 bf 33 7b 11 be
       0.24531418 0.06581848 -0.63845575 -0.14207153
000120 d9 ef e1 bd a3 4c 3c 3d 3f 0b 14 3f 6a 60 1e 3f
       -0.110320754 0.045971524 0.5782966 0.61865866
000130 55 34 b2 3e c1 16 a3 3d 7f 40 02 be ca 7e 0e be
       0.3480555 0.07963324 -0.12719916 -0.13915554
000140 95 0b f0 bd 43 22 d5 bc ae 86 8d be 3b 9d bd be
       -0.11720959 -0.026017314 -0.27641815 -0.3703402
000150 da 0a f6 3c 2e 02 d6 bd 26 04 85 3d 95 76 fa 3e
       0.030034471 -0.104496345 0.06494932 0.48918596
000160 7b cb 60 bf ef d4 4b bc da 1d 52 be c0 e3 2e 3e
       -0.87810487 -0.012440904 -0.205192 0.17079067
000170 4a c0 b2 3e 7e 0e 6a be b0 aa e8 be f8 fb 0c 3f
       0.3491233 -0.22857091 -0.45442724 0.55071974
000180 79 7d f0 3e ba 5b f2 3c 98 55 34 3e 54 c7 d3 3d
       0.46970728 0.029584754 0.17610776 0.10340753
000190 3b 98 5a be 4a d0 23 3c fc 94 fa 3c 0d 7d 69 be
       -0.21347134 0.00999839 0.03058862 -0.2280161
0001a0 e0 b9 7e 3d 95 35 7a 3d aa f5 c0 3c cc b8 8a 3d
       0.062188983 0.061086256 0.023554642 0.067735285
0001b0 9c d8 8f 3e 8f 98 9e be a3 ef af be 28 f2 90 3e
       0.28094947 -0.30975768 -0.34362516 0.2830975
0001c0 e2 ed 2a be 07 1e ca 3c 18 b2 b9 3d 75 9f 11 bf
       -0.16692308 0.024672521 0.09067172 -0.5688394
0001d0 bc a5 9e bd 69 dc 21 3e ae 7e 4b bf 57 f0 30 be
       -0.07746455 0.15806736 -0.7949017 -0.17279182
0001e0 5e 06 a4 be 0b 10 3d be 25 b8 11 bf fc eb 7f bf
       -0.32036108 -0.18463151 -0.5692161 -0.9996946
0001f0 0b 7b e8 bc 80 df 27 3e e6 d6 3d 3f 16 4e 94 3e
       -0.028378984 0.16393852 0.74156034 0.28965825
000200 c1 ec e2 be 98 86 a9 be 92 ff 9d be 95 fc a7 be
       -0.44321254 -0.331105 -0.30859047 -0.32809892
000210 73 ee 32 be bb ff 47 bf f0 09 bb 3e ec e3 a2 be
       -0.17473774 -0.7812459 0.3653102 -0.31814516
000220 94 c7 5a bd 26 d8 b1 3d 25 8c 46 3d 22 bc 70 be
       -0.05341299 0.08683805 0.048473496 -0.23509267
000230 56 01 28 bf f7 aa 22 be e2 22 bf bc 6d 1d 9e be
       -0.6562704 -0.1588553 -0.023332063 -0.30881825
000240 96 91 fe 3d 4f ac d7 3c a0 7c 7f 3d 7d c1 f5 3c
       0.12430112 0.02632728 0.06237471 0.029999489
000250 ed a9 24 bf 52 99 ff be 3e 30 80 be b5 da a4 be
       -0.64321786 -0.49921662 -0.25036806 -0.3219811
000260 db dc bb 3e 5f fe 7c bf 8f 59 a7 3d c8 76 8c 3e
       0.36691937 -0.9882564 0.08171379 0.27434373
000270 df 6b e5 3c 27 b9 01 3e cb b7 d5 3d 21 ba f3 bd
       0.028005539 0.12668286 0.10435446 -0.11900736
000280 cd 78 c5 bd 18 6d 7c bd 4a 75 27 bf a9 0d b6 3d
       -0.096421815 -0.061627477 -0.65413344 0.08889324
000290 39 64 63 3d ef ce aa be 63 79 c8 bd 47 0c 01 3f
       0.0555155 -0.33361003 -0.09788778 0.5040936
0002a0 ce 89 3c 3d 11 1d b2 3e 89 b9 92 bd 58 c9 8d be
       0.04602986 0.347878 -0.07164294 -0.27692676
0002b0 0e 0c c5 be 2d 4d 51 3f ad cc cb bc 5c 3a b7 bd
       -0.3848576 0.81758386 -0.02487787 -0.08946678
0002c0 5b bf 27 3f c9 52 3e be 54 e4 0a be 62 e2 12 bf
       0.6552636 -0.18586268 -0.13563663 -0.5737668
0002d0 77 db 6b be 1d f4 83 bf 9d 74 cf bb e1 13 83 3c
       -0.23032938 -1.0308872 -0.00633104 0.01600069
0002e0 a4 f2 88 3e 42 c1 76 be 47 3b 14 3f 34 1d 23 be
       0.2674762 -0.2409716 0.5790295 -0.15929109
0002f0 51 59 37 3f 08 e9 fd 3d 55 64 08 3f d8 c6 27 3f
       0.7162066 0.12397963 0.53278095 0.65537786
000300 ea 91 be be e1 f0 7d bf 5c 29 e1 bd ea a4 21 be
       -0.372207 -0.9919568 -0.10994217 -0.15785566
000310 f4 d6 2e bd dd 4d 8c 3e 81 12 e3 bc 4b ad a0 bc
       -0.042685464 0.27403155 -0.027718784 -0.019613883
000320 b1 9e 37 3e af bd 17 be 6c 40 09 bf 0a ba 8f bf
       0.1793163 -0.14818452 -0.53613925 -1.122865
000330 cb 4c c5 3e 19 f2 ff be c9 43 c3 bd d1 0f b5 be
       0.3853515 -0.49989393 -0.09534413 -0.3536363
000340 1b 0e 9f be 4f 84 2b 3c 0b f7 f6 bd 8b e9 03 3e
       -0.3106545 0.010468557 -0.120588385 0.12882058
000350 3f 61 a1 be 3c 29 46 3e cf 9e d4 3e 2f 3f 39 bd
       -0.31519505 0.19351667 0.4152741 -0.045226272
000360 64 fc 1d bd 78 98 2d 3d d7 fe 45 3c 43 26 13 bf
       -0.038570777 0.042381734 0.012084684 -0.5748026
000370 f0 48 1e bf f2 22 51 3e 41 bf 6a 3f 0f 65 b9 bd
       -0.61830044 0.20423487 0.9169808 -0.090524785
000380 8e 50 ac be 2b 54 49 3e e3 b9 9f be 7f 0d 28 be
       -0.33655208 0.19661014 -0.31196508 -0.16411398
000390 1d e5 aa be c0 26 d2 be f7 b8 ec be 59 be aa be
       -0.33377925 -0.4104519 -0.46234867 -0.3334835
0003a0 fb 04 6e 3e e1 f9 8f be e9 82 83 be 35 06 12 bd
       0.23244087 -0.2812033 -0.25685814 -0.03565045
0003b0 1c c7 81 be fe 6b 00 be fa bd 0f bf b3 66 0b be
       -0.2534722 -0.12541196 -0.56149256 -0.13613395
0003c0 43 6f 15 3d 07 06 43 3e 69 41 36 3f 46 fa 88 3e
       0.03648306 0.19045268 0.7119356 0.26753443
0003d0 e5 c9 5e 3c bc 24 b1 3d 23 41 74 be 63 70 4e 3d
       0.01359794 0.08649585 -0.23852973 0.05040015
0003e0 a6 ec 84 be 28 6d 8e be bb ce 78 3d 2f 0b 07 bf
       -0.25961798 -0.27817655 0.06074403 -0.5275144
0003f0 2d cc ee 3d a5 25 9c bf 15 b7 1c 3e ab 29 d8 bd
       0.11660037 -1.2198988 0.15304215 -0.105548225

transformer.layers.0.linear2.bias f4 [16]
000000 8a f6 1f 3e da a9 a2 3c d1 0a e7 3c 65 2b 61 3d
       0.15621391 0.019856382 0.0282034 0.054973025
000010 3d c7 ba 3c 1e 6b 42 3e d3 84 73 3e 68 cb 58 3d
       0.022800082 0.18986174 0.23781137 0.05292836
000020 61 9f 01 be d4 94 12 3e 53 bd d2 3c ab 1e 58 be
       -0.12658454 0.14314586 0.025725042 -0.21105449
000030 6c d7 39 be f8 d2 05 be dd 22 bc bd ef 14 76 be
       -0.18148583 -0.1306876 -0.09186337 -0.24031423

transformer.layers.0.norm1.weight f4 [16]
000000 ba 21 2a 3f 35 d6 36 3f c9 6c 33 3f 67 2f fc 3e
       0.6645771 0.71420604 0.7008787 0.49254915
000010 19 89 5c 3f 8c 6a 57 3f d6 bf 49 3f 8b 81 3c 3f
       0.86146694 0.8414695 0.78808343 0.73635167
000020 5f ec 3e 3f 9d 65 28 3f 81 3f 7c 3f b5 f9 7a 3f
       0.74579424 0.6578005 0.985344 0.9803727
000030 57 fc 4d 3f 29 21 f1 3e f7 51 3a 3f ae 3b 18 3f
       0.80463165 0.47095612 0.7278132 0.59466064

transformer.layers.0.norm1.bias f4 [16]
000000 a7 46 ac be b7 af d9 3e 6f e7 17 bf 37 bd 3b bd
       -0.33647653 0.42516872 -0.59337515 -0.045834746
000010 be 3a e5 be 5d 64 ed 3e 00 58 ce be 54 85 03 bf
       -0.4477138 0.46365634 -0.40301514 -0.5137532
000020 0f 77 7d 3f 24 65 46 3f 5c 04 e4 be 59 2c 11 3f
       0.99009794 0.7749808 -0.44534576 0.56708294
000030 ec 14 d6 be 54 f3 b8 3e 55 21 05 be fd c9 0f 3f
       -0.41812837 0.36123145 -0.13000996 0.56167585

transformer.layers.0.norm2.weight f4 [16]
000000 2d 21 7b 3f 36 5e a4 3f c6 84 b3 3f 6b 7a d6 3f
       0.980975 1.2841251 1.4024894 1.6756109
000010 ee 64 30 3f 64 d8 50 3f 3f 8d 5b 3f 29 b7 81 3f
       0.68904006 0.81580186 0.857624 1.0134021
000020 96 a7 3d 3f 3d 13 8d 3f a4 4b 3f 3f 89 f9 4d 3f
       0.7408384 1.1021496 0.74724793 0.80458885
000030 ce e9 82 3f 73 84 92 3f 64 b1 4b 3f 6f 6b 8b 3f
       1.0227602 1.144667 0.7956755 1.0892161

transformer.layers.0.norm2.bias f4 [16]
000000 26 b3 77 3e 42 af 7c bc 27 81 4f 3e a7 67 c9 bc
       0.24189433 -0.015422644 0.20264111 -0.024585558
000010 f6 96 9f 3e d3 54 1a bf 73 1b 85 3e fa 30 dd 3e
       0.31169862 -0.6028568 0.25997505 0.4320143
000020 a2 c3 f4 be 78 5a 54 bf ea 85 b8 3e d5 58 3e bd
       -0.47805506 -0.82950544 0.36039668 -0.046471436
000030 f8 ec 37 3f 81 6c 44 3e 4d ad ef 3c 4d 91 6a be
       0.7184596 0.19182016 0.029257441 -0.2290699
