models/experimental/clstm/CLSTM_model.pth (torch, 124535 bytes, 18 tensors)

weight f4 [62, 64, 3]
00000000: 2af0 1cbe ffd1 b63f f869 ae3d 248c f7bc
00000010: 0168 9cbf eb17 24bd bb9f 19bd f72a 90be
00000020: 73d6 8bbd cf81 683d 0cb2 4ebf f123 61be
00000030: d365 8dbd b85a b6bf 86a9 f93d 0c31 39bd
00000040: 43bc 5dbf ac55 dd3c 385b d0bd 9567 0bbf
00000050: 766e 7bbd e2cb debd fe5c 963f 4e7f 353d
00000060: de75 9c3d 6dbc 9a3f 8d3b 0abd 7d5c 0b3d
00000070: 6e86 cb3f e17f 443d b9bf af3d 2dc3 aa3e
00000080: 38b1 2fbd 0f8a 913c 3a1e e9bf 75fd 1b3c
00000090: 605b 7cbd c544 94bc cc23 97bd 4810 903c
000000a0: 25c9 fcbf f06c 14bc f95a 0abd cd11 c03e
000000b0: 83fd 0ebe 17fc 61bc 4171 1ebc 2fcd 313e
000000c0: c491 893d 43cc d93f 61f5 d73b 9c24 fcbd
000000d0: a5d4 38be bd58 99bb f67a e2bc e9f1 253d
000000e0: 9e00 b7bc 39de f73b bf1d ba3f b4f0 74bd
000000f0: bb2a 373d 2288 a93f 4859 57bd afa2 1b3e
00000100: ff63 05bf aeff 443c 5fc2 5dbb adc3 4240
00000110: fa94 e23d 4362 ddbd 9241 2f40 0f3e 9fbb
00000120: f25a 58bd d128 0340 c37e fd3c 73b3 783c
00000130: e7e8 2140 6f58 50be d602 be3c 9fae 5f3f
00000140: 2e54 47be fd54 77bc 0fff ce3f 6268 bcbd
00000150: 3b03 893c 9e67 ec3f 1d56 f13d 930e a33c
00000160: 182a a33f da6f bd3c 216b c13c 1e44 693e
00000170: 4ff8 f6bd 1c05 683a 7943 733f fe21 1abd
00000180: ded8 cd3a 15ff 42c0 2dea c3bc 53cf 12bd
00000190: 783d 093f 6044 f6bc 314e c33d 335d 93bf
000001a0: 06ae 62bd 4552 93bd d094 9d3d 6bb5 2dbb
000001b0: ffed 6dbe befe a5bf 327f 02bd dab2 cabd
000001c0: fe75 94be f32f b43d 5037 073e 86a3 79bf
000001d0: a773 2c3c e43f f5bd 0d87 863f dcd5 72be
000001e0: acc3 16bd aebc 093f 6055 11be 414e 393c
000001f0: 1af9 0bbd ec12 24be c64a 9bbd 89b5 b3be
00000200: 0de2 8bbd 497a 5eba ecbb 1d3e eb84 33bd
00000210: d0d5 f73c c133 a8bf 434c f9bc 141d 19be
00000220: 1eb7 14c0 7248 873c 6922 9dbd 18e6 023f
00000230: a748 fcbd c311 bf3d df05 23c0 277d f53d
00000240: a542 8bbb c951 29c0 d498 fdbd b4e3 123d
00000250: 95fd b2bf c4df 23bd 59b4 fbbc 6b51 af3f
00000260: 58df 76ba 2de7 853d e481 62bf b0f5 3dbd
00000270: 2867 4b3e 471d 833f df32 28bd f80d a93d
00000280: a3d1 083f eac5 55bd 99e8 ec3c b8b7 f1bd
00000290: c35f 1fbe 7f33 303d fba6 903f 30c3 c5bc
000002a0: d673 ecbc 6b21 983f 4add e13d d068 b7bd
000002b0: 1a54 ef3f d6e8 50bd c0dc c03d 33e5 55be
000002c0: 11f1 7f3d 983c 843d ccaf 9f3f 9e9f b4bd
000002d0: d502 183d a69e 79be 5806 5ebc 994b aa3d
000002e0: 6ed4 bfbe c0c4 aa3c d035 f43c a3bc 0a3f
000002f0: cc35 09be e04b 26bd 1116 f33f c881 18be
00000300: 1075 cc3e d7c6 343d 7ec1 01be 86c5 97c0
00000310: d19f 163e 7df7 793c e8cf b5c0 05cc 813d
00000320: f934 453e aedb 5cbf 3802 9d3b b137 a83d
00000330: c664 2dbd fb23 00be 7204 5cbc 7b9e 953e
00000340: 3bd6 b6bb fca6 aebd cceb 8f3f 2c91 0ebe
00000350: b9a2 19ba 3919 d13f d3b7 fb3c 925f e13c
00000360: c09b e13f dec6 11bd bcc2 173d b16e 9b3f
00000370: 940d c5bd d72a 223b 078a 733f d6f8 883d
00000380: 912d 63bd c7e9 983f 1349 b33c faa8 b8bc
00000390: 0c2f 0a3f 53a3 423c 281f 6dbc bc89 40bf
000003a0: 08cb f5bc c42e 5e3d b747 82be 8480 903d
000003b0: 908f 133d 24a9 813f 8c3e 993c b204 3c3e
000003c0: 052d 243f 85af e9bd 5e48 153d 6c75 183e
000003d0: f012 5cbd e052 813d 994f 823e fe5a babd
000003e0: c9af 05bd 64b7 033e db4c ccbd bca1 10bd
000003f0: 527d 283f 5d0d c63c 1c8b 9ebc 92dd 4d3f
-0.1532599 1.4282836 0.08516306 -0.030218191 -1.221924 -0.040061872 -0.037505846 -0.2815778
-0.06828012 0.05676442 -0.8074043 -0.21986367 -0.06904187 -1.4246435 0.12190537 -0.04521279
-0.8661539 0.02701839 -0.101736486 -0.5445493 -0.06138464 -0.10878731 1.1747129 0.04431086
0.07639669 1.2088753 -0.0337482 0.03402375 1.59004 0.047973517 0.0858149 0.33352032
-0.04289362 0.017766027 -1.821235 0.009520878 -0.06161058 -0.018099198 -0.073798746 0.017585889
-1.9748884 -0.009059176 -0.033778165 0.3751358 -0.13963895 -0.013793013 -0.0096705565 0.17363428
0.06717256 1.7015461 0.0065905307 -0.1231167 -0.18049867 -0.004679768 -0.027646523 0.040513907
-0.022339161 0.007564333 1.4540328 -0.059799865 0.044718485 1.324467 -0.05257538 0.15198778
-0.52105707 0.012023849 -0.0033837778 3.043193 0.11063571 -0.108097576 2.738377 -0.004859693
-0.052821107 2.0493662 0.030944234 0.015179503 2.5298402 -0.20346235 0.023194712 0.87375826
-0.19465706 -0.015095946 1.6171588 -0.09199597 0.016725173 1.8469121 0.11784003 0.01990441
1.2747221 0.023124624 0.023610653 0.22779891 -0.1205908 0.0008850859 0.9502483 -0.037630074
0.001570489 -3.046819 -0.023915375 -0.03584225 0.5360942 -0.0300619 0.09536398 -1.1512817
-0.055341743 -0.07193426 0.07694399 -0.0026505839 -0.2323532 -1.2968366 -0.031859584 -0.098973945
-0.2899627 0.08798208 0.13204694 -0.9751514 0.010525621 -0.11975077 1.0509964 -0.23714393
-0.0368077 0.5380353 -0.14192724 0.011310161 -0.03417311 -0.16022843 -0.07582621 -0.35099438
-0.06830225 -0.000848685 0.15403718 -0.043827932 0.030253321 -1.3140794 -0.030431872 -0.14952499
-2.3236766 0.016514037 -0.07672579 0.51132345 -0.12318545 0.0932956 -2.5472333 0.119867615
-0.004249888 -2.6456168 -0.12382665 0.035861686 -1.3983637 -0.04000832 -0.030725645 1.3696722
-0.0009417436 0.06538234 -0.8847945 -0.046376884 0.1986357 1.024331 -0.04106414 0.082546175
0.5344488 -0.0521907 0.028919505 -0.1180262 -0.15563874 0.04301786 1.1300958 -0.024140924
-0.028863829 1.1885198 0.11028536 -0.08955538 1.8697541 -0.0510033 0.09417105 -0.20888214
0.06248576 0.0645687 1.2475524 -0.08819507 0.037112076 -0.24376926 -0.013551317 0.083152
-0.37466758 0.02084577 0.029810816 0.54194087 -0.13399428 -0.040599704 1.8991109 -0.14893258
0.39933062 0.04413494 -0.12671468 -4.7428617 0.14709403 0.01525676 -5.681629 0.06337742
0.19258489 -0.86272705 0.0047915243 0.08213747 -0.042332433 -0.12513725 -0.013428794 0.29222474
-0.0055797375 -0.085279435 1.1243834 -0.13922566 -0.00058607344 1.6335822 0.030727303 0.027511392
1.7625656 -0.035590045 0.037050948 1.2143155 -0.096217304 0.0024744773 0.9513249 0.06688087
-0.055463377 1.1946343 0.02188543 -0.022541512 0.5397804 0.01187976 -0.01447276 -0.75210166
-0.03000404 0.054243818 -0.2544534 0.070557624 0.036025584 1.0129743 0.018706582 0.18361166
0.64131194 -0.11410431 0.036445968 0.14888543 -0.053728998 0.06314635 0.25451353 -0.09099387
-0.032638345 0.12862927 -0.099755965 -0.035310492 0.65816224 0.024176294 -0.019353442 0.80416214

bias f4 [62]
00000000: c64a 3e3d defb 7b3d c0a9 85bd 916b 753b
00000010: 07d0 c7b8 58b0 86bd 47fd a5bc cb9a ddbc
00000020: f6ef 2c3d ee5c 2ebd 2b23 8bbd 1911 5abd
00000030: 8230 33bd a2b4 6a3d 5ea7 dbbb 1824 64bd
00000040: a42b 833d 094a 063b b1a9 763d c9ea 8c3d
00000050: ece6 25bd 397b dfbc 5ecc 48bd 2436 693d
00000060: 49a0 5b3d a6b6 ff3c 8f34 6d3d 39c7 8ebd
00000070: 4ee3 30bd 313c 32bd 0253 77bd 0616 d53c
00000080: ab19 0f3c 608f 8ebc 110e 56bd dbe4 5ebd
00000090: 2291 7abd 42da 1cbd f4ac b1bc d544 783d
000000a0: 9be8 f23c 0bed 7a3d 2af5 90bc 9fa7 05bd
000000b0: b042 933d f6df fb3c 2c10 183d a587 533d
000000c0: 5483 84bd 9d1a 8d3d 6f5a d63a fcac 2c3d
000000d0: ccaf d2bc c542 2a3d a1b3 7bbd 4f48 1cbd
000000e0: aedc 54bc 4dcc 7bbd 74c6 b43b 0321 f7bc
000000f0: 8a20 43bd 9192 733d
0.04645803 0.061519496 -0.06526518 0.0037448148 -9.5278076e-05 -0.06576604 -0.020262374 -0.02705135
0.042221032 -0.042569093 -0.06793817 -0.05323896 -0.043747433 0.05730117 -0.0067033013 -0.055698484
0.06404808 0.0020490906 0.060220424 0.06880719 -0.040503427 -0.027280437 -0.049023025 0.0569364
0.053619657 0.031215023 0.057911452 -0.069715925 -0.043185525 -0.043514434 -0.060381897 0.026011478
0.008734147 -0.01740235 -0.05225951 -0.054417472 -0.061173566 -0.038294084 -0.021688916 0.06061252
0.02965193 0.061261218 -0.017695028 -0.03263056 0.07190454 0.030746441 0.037124798 0.051643033
-0.06470361 0.06889842 0.0016353856 0.04215716 -0.025718592 0.041567583 -0.061450604 -0.038154896
-0.012992067 -0.061474133 0.0055168215 -0.030167108 -0.047638454 0.05946595

weight f4 [62]
00000000: 9323 a83f 78e6 823f 871e 903f 5235 9c3f
00000010: f1e5 8b3f 50a4 673f 0106 ae3f d8d4 873f
00000020: 750c ad3f 404c c13f 0fbd 5e3f 1370 8b3f
00000030: 2025 943f 8c6b a23f 4f03 993f c7cd aa3f
00000040: 0183 8b3f 9b99 913f fedd c43f 8e40 943f
00000050: 7766 573f 6c80 923f e44e d93f 2697 c73f
00000060: d617 883f 2a4d b33f d7ae 843f 8d88 8b3f
00000070: 47ac 913f 58ae 903f bcbe 823f 480e 493f
00000080: d22a 883f f040 973f 38d3 a03f 9ec8 a23f
00000090: c677 823f c418 be3f 9a23 d33f 301c c43f
000000a0: 10b1 9e3f c271 533f 2a0b 923f 95c9 9e3f
000000b0: 6913 9c3f da5d 783f de86 aa3f f64f 983f
000000c0: a469 843f 8da0 a83f 367b 983f 63d7 833f
000000d0: a1c0 973f 94f5 a83f 57b3 893f 7e1a d93f
000000e0: 701b a53f ce58 813f 76a1 9b3f e666 a13f
000000f0: 7d15 a43f 36ff 903f
1.3135856 1.0226583 1.1259316 1.2203772 1.0929548 0.90485096 1.3595582 1.061183
1.3519427 1.5101395 0.8700723 1.0893577 1.157383 1.2689071 1.1954135 1.3344048
1.0899354 1.1375002 1.5380247 1.15822 0.84140724 1.1445441 1.69772 1.5593002
1.0632274 1.4007924 1.0365857 1.0901047 1.13807 1.1303205 1.0214458 0.78537416
1.0638068 1.1816692 1.2564459 1.2717474 1.0192802 1.4851308 1.649524 1.5321102
1.2397785 0.82595456 1.1409657 1.2405268 1.2193424 0.97018206 1.3322408 1.1899402
1.0344739 1.3173996 1.1912601 1.0300106 1.1855661 1.3199944 1.0757855 1.696121
1.2898998 1.0105226 1.2158649 1.2609527 1.2819058 1.1327884

bias f4 [62]
00000000: c9a0 93be 26e0 a0be c1ce 26bf f3de 1bbf
00000010: 721d dbbe 2be9 9a3d 84ac 0cbf ade3 88be
00000020: 9efc cabe 8d48 dfbe 2f58 5f3e dee2 40be
00000030: 0503 923c 0f41 2dbf 18f4 06bf 95b2 3ebf
00000040: f56a e63c 70ac c8bd 7a1c 88bf c21a d7bd
00000050: 5699 723e 7b88 bfbe faf7 c5bf bed1 4dbf
00000060: bdec 88be bf6b 09bf ff27 35be 00f0 00bf
00000070: f62c 6b3d 5b7b 2fbf ca04 2c3c 6d28 983e
00000080: 7323 46be 8298 88be adbc 57bf c032 e5be
00000090: 97c5 76bd e136 0abf ebcb 08bf 2e66 5abf
000000a0: 4d24 04bf 3f40 143d 3030 bebd e4bd 7ebe
000000b0: 35b7 03bf e055 193d c868 20bf fef8 18bf
000000c0: e6d2 0dbe 5880 1ebf 3fe7 1bbf ef24 47bc
000000d0: 7e94 f6bd b850 42bf bd00 2d3e 5287 7dbf
000000e0: c5c6 7dbe b264 e83d 26b2 38be d39d b0be
000000f0: 0879 29bf 2543 0cbf
-0.28833607 -0.31421012 -0.6515923 -0.6088707 -0.42795902 0.075640045 -0.5495074 -0.26736203
-0.39645857 -0.4361004 0.21810983 -0.18836543 0.017823705 -0.67677397 -0.5271621 -0.74491245
0.028127173 -0.09798515 -1.063369 -0.105031505 0.23691306 -0.37408814 -1.5466301 -0.80398166
-0.26743117 -0.5368003 -0.17691039 -0.5036621 0.057415925 -0.685476 0.010499189 0.29718342
-0.1934946 -0.26678854 -0.8427227 -0.44765282 -0.06024703 -0.5398999 -0.53436154 -0.85312164
-0.5161789 0.036194082 -0.09286535 -0.24877125 -0.51451427 0.037435412 -0.62659883 -0.5975493
-0.13849983 -0.6191459 -0.6089973 -0.012154802 -0.120400414 -0.7590442 0.16894813 -0.9903461
-0.24782856 0.11347331 -0.18036708 -0.3449541 -0.66200304 -0.54789954

running_mean f4 [62]
00000000: 64ea d5be 4769 33be 921a 49be a574 0ebc
00000010: ab8e 47be 116b 213f 1062 523f 2441 f53e
00000020: a63b c83c 3c8e 9ebe 911e 493f 5140 adbe
00000030: 9558 0a3e 80a2 1f3e ad6f a5bd 5de9 15bd
00000040: 8929 d13d db55 103e 240e e03f f2ab 18bc
00000050: 42b9 37be 3dad 2dbe 8d9a 02bf 4f15 ddbe
00000060: 5f48 cc3e f751 3dbf 3ca1 913d bd81 70bd
00000070: 0523 91bc e325 9bbe 38b9 333f 0565 e53e
00000080: d663 7e3e 6ac0 0fbf 370b 52bd 3a49 1d3f
00000090: 34c8 11bf 393e 313e 276e a2bf d5bb e3bf
000000a0: d3c2 bdbd 6035 f9bd 25bf 70bf 2a1a e7be
000000b0: eca7 8bbd fa4a 173f 9b13 ac3d d579 79bc
000000c0: ab97 9fbe 0844 db3d 52ab 373d 58be 1640
000000d0: edb8 d83e 327f fcbd dc1e cabe c402 a6bf
000000e0: 2cc3 873e ec89 be3e 41ff 81bf 00d3 c43d
000000f0: aa0b 373d f9da a2bd
-0.41780388 -0.17520629 -0.19639042 -0.008694802 -0.19488017 0.63053995 0.8218088 0.4790126
0.024442505 -0.3096789 0.78562266 -0.33838132 0.13510354 0.15589333 -0.08077941 -0.036599506
0.10213 0.14095251 1.7504315 -0.009318339 -0.17941764 -0.16960616 -0.51017076 -0.4318032
0.39898965 -0.73953193 0.07110831 -0.058717478 -0.017716894 -0.30302343 0.70204496 0.44803634
0.24842772 -0.56152976 -0.051280227 0.6143986 -0.5694611 0.17308892 -1.2689866 -1.7791697
-0.092656754 -0.121683836 -0.94041663 -0.4513715 -0.06819138 0.5909878 0.08402177 -0.015226801
-0.311704 0.10706335 0.04484112 2.3553677 0.42328587 -0.12328948 -0.3947667 -1.2969594
0.26516092 0.372146 -1.0156022 0.096105576 0.044688858 -0.07951922

running_var f4 [62]
00000000: f90c 2343 3c1c eb41 f646 2041 5355 3141
00000010: d53f 3c41 3bcc d142 e1c1 5442 272a 2c42
00000020: 7d46 2042 4698 af42 cdb9 5a42 56a2 6542
00000030: acca a742 71dd fd40 dc6a 4441 9be6 ba40
00000040: 87e0 2443 7cee 9e42 f217 8543 bf9d 9642
00000050: 24ee 9a42 84a2 3341 d2d8 1b42 784b e242
00000060: f67c aa41 3eab 6842 f711 8341 801c 5241
00000070: 93ee a742 cfa0 4741 27ae 5a42 dadf e642
00000080: 927d 6f41 39c3 db42 a4e9 b840 1177 3542
00000090: 1bf3 0a42 bac7 c542 82c9 4543 4b66 8843
000000a0: 3f72 a641 2e00 3342 f74e 1943 45ce a942
000000b0: fd32 3941 dbe2 aa42 8d66 0741 d897 8b41
000000c0: e1a9 4a41 ec8d 6640 49db 3741 38da b843
000000d0: 705f 9d42 f9bb b440 47ca e142 2b9d a143
000000e0: fd33 0842 5795 bd41 0aca c842 097f af42
000000f0: ff43 e540 3379 1f41
163.05067 29.388786 10.017324 11.083331 11.765584 104.89889 53.189335 43.041164
40.068836 87.79741 54.681446 57.40853 83.89584 7.9332814 12.276089 5.84065
164.87706 79.46579 266.18707 75.3081 77.46512 11.227177 38.96174 113.1474
21.311016 58.16723 16.383772 13.131958 83.965965 12.47676 54.67007 115.43721
14.968157 109.881294 5.7785206 45.366276 34.737408 98.89009 197.78714 272.79916
20.805784 44.750175 153.30846 84.90287 11.574948 85.44308 8.462537 17.449142
12.666474 3.6024122 11.491036 369.70483 78.6864 5.647946 112.89507 323.22787
34.05077 23.69792 100.39461 87.748116 7.1645503 9.96709

weight f4 [32, 62, 3]
00000000: 1709 ba3a 0b29 f3bf b4aa 81bd 9f38 173d
00000010: c24a 5fbd e9c8 edbf 3ad2 893c 9247 86bd
00000020: f973 3dbc 6043 863d 9535 2fbd 6260 afbd
00000030: f002 f3bd 8a58 8fbf 6088 19bd 27b5 ee3e
00000040: ce04 813c 56b0 02be fb23 e23b c9cd 473f
00000050: cb60 803d a153 8dbd eabb 78bd 7f89 9e3f
00000060: 64ee fb3d ce77 d13f 1b71 aa3c 81cb 003f
00000070: dcaa 0bbe df69 e4bc 3550 bcbb 4000 32bf
00000080: 20a4 163d 7228 d8bd 83fa ecbf a981 023d
00000090: c122 e6bd fb54 a3bd 819e fd3e d424 31bd
000000a0: 945a a0bf 55dc 82bd 7b3c a0bf e29e 0e3c
000000b0: 6782 b8bc 136a 973d 1bc1 2a3c bda5 413d
000000c0: f287 ca3c 1031 f1be db93 cbbc eed2 b73e
000000d0: 41af 663d c73a b13d 2342 cdbd ab67 ef3d
000000e0: 752d b13f dabc 10bd 7ccf 143f 1ba1 43bd
000000f0: 2d24 bfbd 0b40 7bc0 da21 0dbd c7e5 1cbe
00000100: 316f 3b3f 4e23 5bbd c169 ecbd 190e 4c3d
00000110: bdbc b73f d3d6 8dbd b489 63bd 5b08 933f
00000120: 5377 0fbd e285 c0bd 6523 a53c 17a2 81bd
00000130: ccc2 b1be 22fb 26bd d9a1 fdbe 8452 dfba
00000140: ecbc 4c3c f5f2 083c 7478 0ebf f4fa ad3d
00000150: ef2e 8bbc eb9b 683f 9c00 41bd dbe2 faba
00000160: 2451 41bc 55b3 3cc0 373b cd3f 5dc5 febd
00000170: 8040 73bd 2155 53bd ed8b d3bc ab1f 9bbf
00000180: 698b cd3c b078 433d e44b 0cc0 3235 66be
00000190: 875f f6bc f861 48bf d747 4e3d 33f2 453d
000001a0: c1a9 4abf 74d9 7bbd 9d09 6c3c 7168 d03f
000001b0: 3884 443f dd28 cabc 4d61 1a3d 855f 01bd
000001c0: 3ab6 96bd aa54 2a3e 744d acbd 335b af3e
000001d0: df29 aabd 2d75 0d3e 8299 5dc0 ed86 163c
000001e0: 88a7 e43d 75bf a7bd daed a43f 2721 913f
000001f0: 1a45 a7bd b7bc 94bd 3c08 dcbd b896 c83c
00000200: e588 60bf e084 be3d 4516 4fbc 9679 afbd
00000210: 29b4 82bc dc4d 3bbf 98e7 d9bd 0128 c4bd
00000220: e8cf 563f e077 1a3c 512c 193d 0a4e c6be
00000230: ad0f ea3d 04e1 553d 21e3 8ebf 4c45 813d
00000240: ec80 09bd 7daf 1e3f 8b24 63bd 73b3 76bd
00000250: 99c1 b23e b42a 4dbd ed48 793c 5a55 093d
00000260: 4191 a9bf fee8 97bd e98e 933f 65fd 513d
00000270: 1060 f8bc cce3 2f3f 67d6 aabd b240 a93d
00000280: be80 4cbd 73e6 8f3c 3ad8 e8bb cca0 673f
00000290: e32f 21be d280 ccbf a7f0 1bbd f55b 303c
000002a0: a589 e13c 2388 203d dd97 263c bf9e 78bd
000002b0: b172 19bf 8317 fa3c 1055 853e 31b2 cf3d
000002c0: 17c4 fbbd 186f 123e 7400 ef3c 447e 1040
000002d0: 1ab2 6ebc 9a7b c13e e3ce 1cbc d54c 64bf
000002e0: 7a87 56bd 258f 75bd 3ffc 00bd d7a3 5abe
000002f0: aae8 243c df10 cbbb 6ff9 c53d 7c5e 9f3e
00000300: 5c23 9bbd a28a 1f3d 7da4 83bf f60d 873d
00000310: fbde 093e 52cb 9cbf 8d43 04be 3903 bdbe
00000320: 8e21 e83d a98d 5ec0 1ee8 be3a 6eb7 d5bd
00000330: 52ef 5abd 6ed3 e0bd cc42 243d 1598 813d
00000340: 7ff4 4fbd defa 383f b05e 41bd 526b ab3f
00000350: fc04 ec3d 30c3 303f a1b7 e6bb a661 0c3e
00000360: bb8e 963d 941d a13e e6c1 6abc 96b4 74bd
00000370: 27b1 d93f 11ca 90bd 2308 dcbc f35b 63bd
00000380: 5937 b9bd 38d8 d23d 0357 39bb 5dc6 3dbe
00000390: d735 02bf b352 d03c a899 ccbd b26e 763d
000003a0: 248a 37bf 2fa6 f83d 8c3c aebb da55 983f
000003b0: dd4d d13b 2a88 d6bf 8a13 1a3e 32d2 833d
000003c0: eb3d 39bc c2e5 edbd 106a 64bf 3605 02bd
000003d0: 177b be3f b165 2bbd 0531 213e b1fe 3f3f
000003e0: 46e8 56bd c24e 08bd ff05 cabd 8cac c03d
000003f0: 2349 db3d 7fde d83d 340d ee3d 619a 10bd
0.0014193383 -1.89969 -0.06331387 0.036919232 -0.054514654 -1.8576938 0.016823877 -0.0655662
-0.011563295 0.065558195 -0.04277571 -0.085633054 -0.11865795 -1.1198895 -0.037483573 0.46622583
0.015749361 -0.1276258 0.006901262 0.7804838 0.06268462 -0.069007166 -0.060726084 1.238571
0.12301329 1.6364686 0.020805886 0.5031052 -0.13639396 -0.027882515 -0.005746866 -0.6953163
0.036777616 -0.10554589 -1.851395 0.031861935 -0.112370975 -0.07975193 0.4953499 -0.043248013
-1.2527642 -0.06389681 -1.2518457 0.008704873 -0.022523118 0.07393279 0.0104220165 0.0472772
0.024723027 -0.47107744 -0.024850776 0.35903114 0.05631948 0.08653789 -0.1002238 0.11689695
1.3841997 -0.035336353 0.58129096 -0.047761064 -0.09333072 -3.9257839 -0.03445611 -0.15322028
0.7321654 -0.053500466 -0.115436085 0.049818132 1.4354473 -0.0692574 -0.055551246 1.1486925
-0.035025906 -0.09400536 0.020158479 -0.06329744 -0.3471893 -0.040766843 -0.49537542 -0.0017038141
0.012496214 0.008358707 -0.55652547 0.08495131 -0.016990153 0.9086291 -0.04711972 -0.0019141095
-0.011799131 -2.9484456 1.6033696 -0.12439988 -0.059387684 -0.051594857 -0.025823558 -1.2119039
0.02509089 0.04772252 -2.192132 -0.2248123 -0.030074848 -0.7827449 0.05036148 0.048326682
-0.79165274 -0.061486676 0.014406589 1.6281873 0.7676425 -0.024677688 0.03769045 -0.031585235
-0.07358976 0.1663386 -0.084132105 0.34249267 -0.083087675 0.1381423 -3.4624944 0.009187442
0.111647666 -0.081908144 1.2885087 1.1338242 -0.08167477 -0.07262557 -0.10743758 0.02448593
-0.87708884 0.09302688 -0.012639587 -0.085681126 -0.015955048 -0.7316568 -0.10639876 -0.09577943
0.8391099 0.0094279945 0.03739578 -0.38731414 0.11428771 0.052216545 -1.1163064 0.063120455
-0.033570215 0.61986524 -0.055454772 -0.06022973 0.34913328 -0.050089553 0.015215141 0.033528663
-1.3247453 -0.074174866 1.1527988 0.051267046 -0.030319244 0.68706965 -0.08341675 0.08264293
-0.049927466 0.017565941 -0.0071058543 0.9047973 -0.15740924 -1.5976813 -0.0380713 0.010764112
0.027531454 0.03919233 0.010168043 -0.060698267 -0.5994063 0.03052879 0.2604146 0.10141409
-0.122932605 0.14300191 0.02917502 2.2577066 -0.01456883 0.37789613 -0.00957081 -0.89179736
-0.052375294 -0.059950966 -0.03149056 -0.21351562 0.010065237 -0.0061970796 0.09666716 0.31126773
-0.07575104 0.03895057 -1.0284573 0.0659446 0.13463967 -1.2249548 -0.12916394 -0.3691652
0.11334525 -3.4773962 0.0014565026 -0.10435377 -0.05345089 -0.10977827 0.040102765 0.063278355
-0.05077028 0.7225779 -0.04720944 1.3392127 0.11524388 0.6904783 -0.0070409332 0.13709125
0.073514424 0.3146788 -0.014328456 -0.059742533 1.7007188 -0.07069791 -0.026859349 -0.05550761
-0.0904376 0.10295147 -0.0028280623 -0.18532701 -0.50863403 0.025430059 -0.09990245 0.06016416
-0.7169516 0.12141072 -0.0053172763 1.19012 0.006387456 -1.6760304 0.15046516 0.06436576
-0.011306266 -0.116160884 -0.8922434 -0.03174325 1.4881314 -0.041845027 0.15741356 0.74998003
-0.052467607 -0.033278234 -0.09864425 0.09407911 0.10707309 0.10589313 0.11623612 -0.035303477

bias f4 [32]
00000000: c652 75bc 226b 91bc 9e7c 1bb8 79d9 483d
00000010: 78e1 5bbd bde0 6f3c 0f21 6fbd 9651 a43c
00000020: 1d95 2f3d 221b d93c a026 8b3d 5d55 bdbc
00000030: 6e37 9ebc a5d6 4dbd f6ce 45bc 33d2 48bd
00000040: e77c 6c3d 003f 64bd a13b 453d 8233 083d
00000050: d710 38bd 2df5 8ebc ad55 cc3c df94 4e3d
00000060: 277c 123d 69df 4fbd 0c63 bc3c cb3c 56bd
00000070: f2c1 9c3c 650c e9bc be6c 8c3d b47a 3c3d
-0.014973348 -0.01775128 -3.707094e-05 0.049035523 -0.05368182 0.014640984 -0.058381137 0.020058434
0.042866815 0.026502196 0.067944765 -0.023111993 -0.01931354 -0.05025353 -0.012073269 -0.049028587
0.057736304 -0.055724144 0.04815257 0.033252247 -0.044937935 -0.017450893 0.024943197 0.050434943
0.035762932 -0.05075017 0.022996448 -0.05230407 0.01913545 -0.028448293 0.068566784 0.046015456

weight f4 [32]
00000000: 7975 573f 263e 623f 2989 2c3f e9cc 483f
00000010: 01cd 383f f8b8 923f cc64 5f3f 2eab 393f
00000020: 5158 a03f b434 303f f5c4 d73e 2f9a 2c3f
00000030: 02d5 2a3f dace 293f 14e4 f43e 21a9 713f
00000040: b263 6b3f 2a3c 1f3f 1264 523f 8e30 4d3f
00000050: 6e38 533f 18c5 173f f34c 6e3f c641 743f
00000060: 1a08 483f 38e8 2b3f e7c2 4a3f 60bc 483f
00000070: 6691 393f 22d0 103f e08c 243f 0fe5 443f
0.84163624 0.8837608 0.6739679 0.7843767 0.7218781 1.1462698 0.8726318 0.72526824
1.2526952 0.6883042 0.42142454 0.67422765 0.66731274 0.66331255 0.4783026 0.94398695
0.91949 0.6220118 0.82183945 0.80152214 0.8250798 0.59285116 0.93086165 0.9541286
0.7813736 0.6715121 0.7920365 0.7841244 0.72487485 0.56567585 0.6427746 0.76912016

bias f4 [32]
00000000: 3be7 47be 2e3b 293d acfc 973e 9d15 a33d
00000010: d8e7 9d3d 50cf a0bd 96e2 2fbd 63ad 4e3d
00000020: ac79 7fbe 29fd edbd c245 153e 6ffd d33d
00000030: 0eea 8e3e 9159 4e3e 6f7a b83e 4c03 b3be
00000040: d336 8e3d 45d6 673e 4e42 3fbd 826a db3d
00000050: fd6e 49be d339 1b3e 2e93 263e f5f9 123e
00000060: 6cc8 9b3e a160 823e 627a 663d 7a51 67be
00000070: 1b5a 15be 642d bf3e 7936 f13e 074e de3d
-0.19521801 0.041316204 0.2968496 0.07963107 0.07710236 -0.07852042 -0.0429407 0.050458323
-0.24948758 -0.11620552 0.14577392 0.10351073 0.27912945 0.20151354 0.3603091 -0.34963453
0.06944051 0.22640331 -0.046694092 0.10713674 -0.19671245 0.15158777 0.16267082 0.14353164
0.30426347 0.25464347 0.056269057 -0.22589675 -0.14585154 0.37339318 0.47111872 0.10854726

running_mean f4 [32]
00000000: 0616 06c0 bff4 04c0 84c3 0ac1 a8dd 0dc1
00000010: e797 cbbf bdaf 4fc1 c946 02c0 a1c0 68c0
00000020: 1040 36c1 c00d debe e045 50bf 8d00 37c1
00000030: b3b3 d5c0 46b5 e440 6e16 b63f c535 f5c0
00000040: 05bd cac0 eb99 0e41 7854 22c1 25e8 6c40
00000050: 5891 e7c0 89b3 aec0 3f83 46c1 7455 47c1
00000060: 6f0f 07c1 81b7 e040 368d dac0 b523 febf
00000070: fe50 a0c0 86a0 1c41 b296 d8c0 ffe7 edc0
-2.0950942 -2.077438 -8.672733 -8.866615 -1.5905732 -12.980405 -2.0355704 -3.6367571
-11.39064 -0.43369865 -0.8135662 -11.437634 -6.678186 7.147128 1.4225595 -7.6628137
-6.3355737 8.912578 -10.145622 3.701669 -7.236492 -5.459416 -12.4070425 -12.458363
-8.441268 7.0224004 -6.8297377 -1.9854647 -5.0098867 9.78919 -6.7683954 -7.43457

running_var f4 [32]
00000000: 3436 0443 ba0b 4e43 7ff0 e542 65d3 1243
00000010: 71ca 2143 7516 ad43 e3b6 1c43 1e0b 1943
00000020: 6a7f 6c43 3664 0643 aadf 8c42 21e6 3a43
00000030: c484 b542 a3a8 da42 79b8 df42 d689 1443
00000040: acdf eb42 04b5 d542 1820 1543 5411 5443
00000050: aa1b 3e43 2cf3 ee42 30cd 7043 76df e142
00000060: 959a 1443 1090 2343 c5b4 1a43 0158 0043
00000070: 78fc e842 f15e 1d43 4f25 3943 39f9 2743
132.21173 206.0458 114.96972 146.82576 161.79079 346.17545 156.7144 153.04343
236.49771 134.39145 70.436844 186.89894 90.75931 109.32937 111.8603 148.53842
117.93686 106.853546 149.12537 212.06769 190.10806 119.474945 240.80151 112.93645
148.60384 163.56274 154.70613 128.34377 116.4931 157.37086 185.14574 167.97353

weight_ih_l0 f4 [128, 32]
00000000: 63ee dabd 5c7f 46bd 8e48 c8bd 1153 31be
00000010: aea3 f33d 00cf a73c 81ab 103e f1ce 323e
00000020: 0c68 653d b0dc 74bc 7d2a 03be 0eaf b73d
00000030: 14fa 1c3d b87d b93c 67b1 0d3e 707e 3d3c
00000040: 702c 4f3c 1519 e5bd 4a9c 26be 32e5 0fbe
00000050: 0c26 15bd be17 d73d 7469 e4bd 3a9b 26be
00000060: 539c 89bd 8637 cc3d 4c13 66bd a333 283e
00000070: d0c7 2fbc a023 21bc 2e51 0ebe c83a 44bd
00000080: 00d5 fdbd 2893 fc3c 682f 543d 4624 e5bd
00000090: 36c7 ab3d 70a8 363d 5574 2a3e d6d4 30be
000000a0: 91a5 253e 36be 27be 0e17 06be 0fc6 343e
000000b0: b2a1 07be f819 b9bc 124f c23d 3814 813d
000000c0: 17be 2f3e 207f 273d 86c8 d83d 873f 133e
000000d0: e034 2fbe 7f48 abbd c5d6 123e 1418 efbd
000000e0: 27f8 16be 75c8 263e 267e e6bd d899 eabc
000000f0: 4bdf 203e d04c fabd e68b c03d 5d20 00be
00000100: ab66 c9bd 06f6 54bd 6be3 a3bd 6a14 fe3d
00000110: a055 e0bc ee16 20be 3352 30be cfc5 90bd
00000120: 8ba5 82bd 1040 5b3d 3c76 2fbd 6e74 f83d
00000130: 54e5 48bd 9837 143d 8754 1c3e e8ad 303d
00000140: 506e 0cbe f07a 80bc 42eb f63d 1026 1a3d
00000150: e8b5 cc3c 5c1c 2fbd d68e e63d 1ea0 c3bd
00000160: f331 05be 3022 ebbd 6fa8 073e a052 13bd
00000170: d6c7 8b3d 6fa2 093e 1034 2bbc 5f1e 08be
00000180: 772e 183e ad52 003e 7322 f2bd b6cf 15be
00000190: 689d a4bc a018 18be 3eaf a03d cb85 f7bd
000001a0: c3ee 2dbe a18a 02be f3a1 183e f061 c3bc
000001b0: 2b07 c8bd ead8 e73d d155 0d3e f76a 0bbe
000001c0: 1096 26bc c26c cfbd e0a0 9c3b 2573 2bbe
000001d0: e9c3 243e 7ab2 ef3d 64dc 32bd f8cf e7bd
000001e0: b8a1 eb3c 4cb6 64bd 3345 073e 068c c83d
000001f0: 6f87 163e 0769 063e 5bc8 083e 2e23 b13d
00000200: b1f5 f3bd c8e3 fd3c e0ad 213c 3e90 2dbe
00000210: 5c87 14bd ecf7 2fbd 9630 ef3d 2937 13be
00000220: cefc df3d 521f ffbd 4969 0abe a858 d53c
00000230: 60d2 e83b 6408 34be c91c 8ebd c42e c2bd
00000240: 6618 ad3d 6b2b 323e 4096 b5bd c32f 0f3e
00000250: a098 213d 3c8b e5bd 2b91 193e ccfe d5bd
00000260: ebfd f6bd 62b3 c6bd 5ea7 22be ef82 02be
00000270: 0ca1 0dbe 21df 2b3e 32f6 f33d 5648 71bd
00000280: e3e9 073e 4d43 2fbe 6fa6 08be d061 03bc
00000290: d211 5dbd 90b8 243c 7809 933d 786e 05bd
000002a0: 00f8 0ebd 08dd 37bd dce1 493d 644d 15be
000002b0: 4021 433b 6ed6 c73d 00f7 503b a0b5 a4bb
000002c0: 24b7 3abd 90d7 123d d571 2d3e 00bf 97bb
000002d0: 3534 293e 88ac 9b3c 882c adbc c591 a9bd
000002e0: a020 123c 5341 a3bd f216 e03d 048d 34be
000002f0: 7269 c93d 9e0d b73d 8ae4 cb3d 72ee c63d
00000300: 90fd 95bc 1314 173e b013 0f3d 005c 993a
00000310: 1a52 61bd 8040 4d3b aeed e43d 16fa 2fbe
00000320: da08 8f3d f5e5 b2bd 6c54 7ebd 602c 65bc
00000330: 9f90 83bd 06d6 2dbe b5be 173e 2866 90bc
00000340: 04d2 263d f022 99bc 0716 1abe 8670 cf3d
00000350: 51b2 21be 5803 1e3d a0db fdbc 99c5 213e
00000360: 229e c03d 7afc ee3d 8afb f53d e2ac dc3d
00000370: 8633 efbd 0cdb 25bd b4f3 69bd 00d4 f039
00000380: 4e1d 1bbe 4058 13bd 0859 afbc 1cb2 e4bd
00000390: 3fd2 143e 5871 043d 8083 8abb d861 bb3c
000003a0: 0057 b23c 4c91 0dbe 78c3 22be 918d 1e3e
000003b0: 50c3 913c eb76 213e 78d9 593d 0a75 e83d
000003c0: 08c7 853c 5787 1d3e a0e0 cebc 3ca2 ffbd
000003d0: 5278 f13d 6bfa 9dbd 307b 8c3d 802a cabb
000003e0: 3434 83bd c1e5 143e cc82 423d bc3c 8a3d
000003f0: f4ff 2bbd ef9d 0a3e 402f d83b fe25 e43d
-0.1069 -0.048461303 -0.09779464 -0.17316844 0.11896454 0.020484447 0.14127924 0.17461754
0.05600743 -0.014945194 -0.12809177 0.08968936 0.03832443 0.022642955 0.13837205 0.01156579
0.012644872 -0.11186425 -0.16270557 -0.14052275 -0.036413237 0.10502575 -0.11152926 -0.16270152
-0.067192696 0.09971528 -0.056170747 0.16425948 -0.010728791 -0.009835154 -0.13898155 -0.04790762
-0.12394142 0.030831888 0.051803023 -0.11188559 0.08387606 0.04459423 0.1664594 -0.1726869
0.1617644 -0.16381153 -0.13094732 0.17653678 -0.13245276 -0.02259539 0.09487738 0.063026845
0.17162357 0.04089272 0.10585122 0.14379703 -0.17110014 -0.08363437 0.1433974 -0.116745144
-0.147431 0.16287406 -0.1125453 -0.028637812 0.1571018 -0.12221682 0.094016835 -0.12512346
-0.098340355 -0.05199244 -0.08002361 0.124062374 -0.02738458 -0.15633747 -0.17218857 -0.07068979
-0.06379231 0.05352789 -0.042837366 0.12131582 -0.04904683 0.03618583 0.1526662 0.0431346
-0.13713956 -0.015683621 0.120565906 0.037633955 0.024989083 -0.042751655 0.112577125 -0.09552024
-0.13007335 -0.1148113 0.13247846 -0.03596747 0.06825225 0.1344087 -0.010449424 -0.13292836
0.14861475 0.12531538 -0.11822977 -0.14630017 -0.020094588 -0.14853144 0.07845925 -0.12086066
-0.16985612 -0.12748195 0.14905529 -0.023850411 -0.09766992 0.1132067 0.13802268 -0.13615023
-0.010167614 -0.10128166 0.00477992 -0.16743143 0.16090359 0.117039636 -0.043667212 -0.11318964
0.028763637 -0.055837914 0.13209991 0.09792332 0.14700101 0.13126002 0.1335768 0.08649288
-0.11912096 0.030992404 0.009868115 -0.16949555 -0.0362619 -0.042961046 0.11679189 -0.1437651
0.109368905 -0.12457146 -0.13516726 0.026043251 0.007105157 -0.17581326 -0.06939084 -0.09481576
0.08451919 0.17399375 -0.088665485 0.13983063 0.039452195 -0.112081975 0.14996783 -0.10448989
-0.1206015 -0.09702183 -0.15884158 -0.1274526 -0.13830966 0.16784336 0.119121924 -0.058906876
0.13272814 -0.17115517 -0.1334474 -0.008018926 -0.053972073 0.010053769 0.071795404 -0.032576054
-0.03490448 -0.044888526 0.049287662 -0.14580303 0.0029774457 0.09757696 0.0031885505 -0.005026534
-0.045584813 0.035850108 0.16937955 -0.0046309233 0.16523822 0.019003168 -0.021139398 -0.082797565
0.008918911 -0.07971444 0.109418765 -0.17631918 0.09834565 0.08938144 0.099557 0.097134486
-0.018309385 0.14753751 0.034930885 0.0011700392 -0.05500994 0.0031318963 0.11178146 -0.17185244
0.0698411 -0.08735267 -0.06209223 -0.013987631 -0.06424069 -0.16976175 0.14818843 -0.017626837
0.04072763 -0.018693417 -0.15047465 0.10128884 -0.15790679 0.038577408 -0.030988514 0.15798034
0.094051614 0.1166925 0.12010868 0.10775162 -0.11679749 -0.040492103 -0.05711718 0.0004593432
-0.15147898 -0.035972834 -0.021404758 -0.11166784 0.14533328 0.032334656 -0.004227102 0.022873804
0.02177 -0.13824958 -0.15894878 0.15483691 0.017793328 0.1576802 0.05318591 0.113504484
0.016330257 0.1538366 -0.025253594 -0.124821156 0.117905274 -0.07713779 0.06859434 -0.006169617
-0.06406441 0.14540769 0.04748802 0.067498654 -0.041992143 0.1353681 0.0065974295 0.11140059

weight_hh_l0 f4 [128, 32]
00000000: 80c9 e83c a029 04bd 4e40 953d 88f9 cb3c
00000010: 90ea 573c 2a6d a03d b666 7cbd 80f3 7fbc
00000020: 6d59 e1bd 00e0 2d3b 11d9 0a3e ed4d 25be
00000030: f904 1c3e 7010 11bd 4726 f5bd ec83 4a3d
00000040: 8bad 153e 232b 0e3e 8718 89bd 3572 243e
00000050: c095 033c fcc3 cbbd ddf8 2d3e 5875 43bd
00000060: cb11 293e 6135 1fbe 97c5 293e fc09 c4bd
00000070: b0ea 1ebc 2493 ffbd 6485 0ebd 2a00 903d
00000080: 9c3d 42bd 6f9b 253e bbf5 bdbd 20b3 933b
00000090: e013 903b 0033 a6bc 7789 293e caec 31be
000000a0: 2cee 2b3d be31 dd3d ce71 c3bd 50aa a53c
000000b0: 008b 0e3d c035 a63b 5621 e63d f4b8 a8bd
000000c0: 6cd0 23bd c0b6 a3bd 4c9b 0ebd 8d4b 033e
000000d0: 0a2c ce3d d90f b0bd aeb8 a03d 990d 02be
000000e0: 208a a7bd c84a a63c 98a9 d9bc 4e46 2bbe
000000f0: 1b77 1cbe 7002 e23c a2d0 efbd 65bf 2f3e
00000100: e696 a63d a62d a9bd 81cd 113e d8ef 4e3d
00000110: 736f 2cbe 182c 9a3c df85 96bd b881 e53c
00000120: 5d33 b5bd 8a79 febd 12ea 863d be26 833d
00000130: a456 453d e709 93bd 8a83 ce3d 683c 713d
00000140: 2cd6 12bd 3b66 1c3e 134c 2b3e c090 f6bd
00000150: f317 debd 0192 303e e7d4 bcbd 1ee0 ad3d
00000160: 8c77 823d 4550 2c3e 648a 26be afc6 173e
00000170: d096 c83c d00a f9bd c6de bdbd ba33 bd3d
00000180: 9ffb 27be dc21 6bbd 3a7e 0fbe b058 293d
00000190: 7602 9e3d 4042 61bc 8a33 e73d e600 b6bd
000001a0: b238 f33d eb5f 153e e0f5 4d3d 8020 433c
000001b0: fe62 d3bd 4a47 c3bd 0cc0 4a3d c001 d83c
000001c0: 80c8 00be d04d 613c 3099 643c d54e acbd
000001d0: 7efc dc3d bfa6 1a3e 7fae 243e 63cd 0ebe
000001e0: 3a4f 0bbe 50d3 803d f87c f33c 8455 0f3d
000001f0: dc47 023d 7b67 293e 965f 06be 1550 203e
00000200: 188b b33c dc7a 36bd fff6 cdbd b07a c2bc
00000210: 7367 e7bd 1aeb e83d 7f40 b6bd f938 033e
00000220: 6801 4c3d b539 243e 72f0 cb3d 059e 033e
00000230: 4770 d8bd dd2d 193e e5aa 003e 905d 0bbe
00000240: 366b 70bd f1bf bebd 30cd 1e3d 3699 ff3d
00000250: 6c3e 3fbd 64c3 763d dc1b 763d a6e7 ca3d
00000260: 12ed c03d af56 0c3e b8a8 87bc 536b f2bd
00000270: 3eaf b43d 80e3 bc3c ebcb c9bd 004b 903d
00000280: b532 2b3e 52e7 31be 9d52 2ebe b0da 34bc
00000290: 6fdb 153e 9b10 bbbd f5d2 213e b365 a9bd
000002a0: 291c dbbd f68d 89bd d213 11be ca21 e43d
000002b0: 00c8 0139 50ad 813d be08 17be 769e f83d
000002c0: 80c9 313d cc4f 4e3d c82a 11be 40b8 6f3d
000002d0: fee5 09be 5e77 c93d 804c febb 6385 04be
000002e0: c966 2c3e bc86 1dbd 07c5 153e e830 5f3d
000002f0: 0c74 32bd 0dd8 1d3e b023 febc da4a af3d
00000300: 5009 9abd 104f d9bd 264a ec3d e0c8 df3c
00000310: 90df dcbd b800 35be f9b7 febd 3638 f53d
00000320: e087 c0bc 80bd c4bc 93dd b6bd b0ea abbc
00000330: e00c 94bc 1f16 2cbe ba09 8ebd 376f 043e
00000340: 3ae8 b93d 5b5a bdbd a0df 38bc 4a04 b63d
00000350: 6aa3 21be 8a33 e4bd faf1 9a3d 9e8a fd3d
00000360: e065 d8bc 3ac0 9a3d ecc3 6e3d a0dd 25bd
00000370: 2a1b d03d d079 143d 5c7c fdbd 6e61 9fbd
00000380: 314b d1bd 203f 4f3c 083a 12bd 6fd3 2abe
00000390: 80f8 f7bc 90f1 dd3c 1d02 003e be67 ed3d
000003a0: b080 9f3c 7da8 1f3e 5c29 9bbd 7af8 fa3d
000003b0: e3d3 32be c804 723d 9446 3e3d 90ad 223c
000003c0: 8773 1dbe 53ae 32be 82b1 56bd cc07 06be
000003d0: 053c 113e f6ef 903d 20fa 493c d7c0 1cbe
000003e0: dae2 cf3d 5c91 593d 804f 17be 07e7 c3bd
000003f0: 9689 8bbd 2668 fbbd b665 c03d d064 c6bc
0.028416395 -0.03226626 0.07287656 0.02489926 0.013178483 0.078333214 -0.06162139 -0.01562202
-0.11003385 0.002653122 0.13559367 -0.16143008 0.15236272 -0.035416067 -0.119701914 0.049442217
0.14616983 0.13883643 -0.06694131 0.16059192 0.008031309 -0.099494904 0.16989465 -0.04771933
0.16510694 -0.15547706 0.16579281 -0.09572217 -0.009699509 -0.12479237 -0.03479518 0.07031281
-0.047422037 0.16172574 -0.09275385 0.0045074373 0.0043969005 -0.02028799 0.16556345 -0.17375484
0.041975185 0.10800503 -0.09543191 0.020222813 0.03480053 0.0050723255 0.11236827 -0.08238402
-0.03999369 -0.07993841 -0.03481607 0.12821789 0.100669935 -0.08596773 0.07847725 -0.127005
-0.08180642 0.02029933 -0.026570126 -0.16726038 -0.1527981 0.027589053 -0.117097154 0.17162855
0.0813425 -0.0826066 0.1423855 0.0505217 -0.1683939 0.018819854 -0.07349753 0.028015956
-0.088476874 -0.124255255 0.06587614 0.06403874 0.04817833 -0.07179623 0.10083683 0.0588955
-0.03584878 0.15273373 0.16728239 -0.120393276 -0.10844412 0.17243196 -0.092202954 0.084900126
0.06370458 0.16827495 -0.1626373 0.14821886 0.024485976 -0.121602654 -0.09271006 0.09238382
-0.1640458 -0.057405338 -0.14012995 0.041344345 0.07715313 -0.013748705 0.11289127 -0.0888689
0.11876048 0.14587371 0.050283313 0.011909604 -0.10321616 -0.09535082 0.049499556 0.026368022
-0.12576485 0.013751462 0.013952538 -0.084134735 0.107903466 0.15102671 0.1608219 -0.13945536
-0.13604441 0.06290305 0.029722676 0.034993663 0.03180681 0.16543381 -0.131224 0.15655549
0.021916911 -0.04455076 -0.100568764 -0.023740143 -0.11299028 0.11372967 -0.088990204 0.12814702
0.04980603 0.16037638 0.09957971 0.12853248 -0.1056829 0.14958902 0.12565191 -0.1360991
-0.058695994 -0.09313954 0.0387699 0.124803945 -0.04669039 0.060244933 0.060085163 0.09907465
0.094202176 0.13704942 -0.016559944 -0.11836877 0.08822487 0.0230577 -0.098533474 0.07045555
0.16718562 -0.17373398 -0.17023702 -0.011038467 0.14634489 -0.091340266 0.1580313 -0.08271351
-0.106987305 -0.0671653 -0.14167717 0.11139257 0.00012376904 0.06331885 -0.14749429 0.12139599
0.043405056 0.05036907 -0.14176476 0.058525324 -0.13466641 0.098372206 -0.0077605844 -0.12941508
0.16836084 -0.03845857 0.14625941 0.05449 -0.043567702 0.15414448 -0.031022877 0.08559199
-0.075213075 -0.10610783 0.1153758 0.027317464 -0.10784829 -0.17676055 -0.12437434 0.11973612
-0.02350229 -0.024016142 -0.08928981 -0.020985931 -0.018072546 -0.16805314 -0.06935449 0.1293305
0.09077497 -0.092457496 -0.011283785 0.08887537 -0.15784994 -0.11142643 0.075656846 0.12379955
-0.026415765 0.075561956 0.058292314 -0.04049456 0.10161431 0.036248982 -0.12377235 -0.07782255
-0.1021942 0.0126493275 -0.035699874 -0.16682218 -0.030269861 0.027092725 0.12500806 0.11592053
0.019470543 0.15591617 -0.07576248 0.122544244 -0.17463641 0.05908659 0.046454027 0.009929076
-0.15376101 -0.17449312 -0.05241538 -0.13088912 0.14183052 0.07077019 0.012327701 -0.15307938
0.101506904 0.05311714 -0.1477642 -0.09565549 -0.06813352 -0.12275724 0.093944 -0.024217993

bias_ih_l0 f4 [128]
00000000: 9756 083e 928f e03d acfa 1fbd e0e0 fdbb
00000010: 1c62 4f3d 4457 673d a005 94bb 209d 553d
00000020: 00ef 89bd d08b 273d ca3c 8dbd 5744 b6bd
00000030: 45fb 0cbe 727f 03be c380 173e aa38 df3d
00000040: 303a bcbc 3a61 983d 9018 733c b63e 2ebe
00000050: 6829 9dbc 8627 883d 08d0 c2bd e3d3 103e
00000060: badb b73d 9dfc 163e 1e90 853d 96b8 b53d
00000070: 80ab 33bd 2a3d be3d 45f5 d0bd d061 a0bc
00000080: 8896 023d 2d34 043e e5df 90bd cbf6 28be
00000090: 9ac0 963d 209a 07bd 5a92 f43d a391 94bd
000000a0: a46f 553d 9ec5 09be 68ea af3c d47d 50bd
000000b0: 401b adbc 883d 75bd 3def c3bd a8b3 ba3c
000000c0: 506d 4abd c227 c3bd 4069 923b 60b2 08be
000000d0: bb8c 0fbe 4610 a73d 80b9 7c3d 0006 893d
000000e0: 495b febd d0b0 143c e54a 223e 7cdb 7a3d
000000f0: a00f 03be c89f f4bd dc24 e5bd 486f 213d
00000100: f7cd 0abe 60c5 883d 0ce1 06be 2dc6 0f3e
00000110: 98f7 f5bd f0e4 c6bc 2eaf a63d 6c29 00be
00000120: 50db b1bd d889 bb3c 040f e5bd 247f 65bd
00000130: a01f 653c 4dd4 343e 296e 183e 7489 3bbd
00000140: 183a 073d 4ae3 87bd 58e6 7cbd 6ce2 8c3d
00000150: d89a 933c 6d79 2cbe 7d36 013e 9f02 243e
00000160: 79a8 153e 084f 9b3c cf43 1b3e 86fc a83d
00000170: acf7 e2bd 00e0 4abd 5c04 edbd b901 083e
00000180: 670f 2abe 5af3 e03d 1293 b33d d012 4f3c
00000190: d208 c23d 50d0 4abc d07e 3fbd 921f c33d
000001a0: 983c 99bc 44bc adbd 0059 35bb dfb2 e0bd
000001b0: 4b9a 13be 5ae8 6fbd fe9a c1bd 0e40 973d
000001c0: a9e5 2d3e 7085 113d 976d 1ebe 8ebc fcbd
000001d0: 3e77 df3d 7731 233e 04ee 9ebd c0b1 fd3b
000001e0: bda5 31be e0bb f23b 4a5a b03d 378d c3bd
000001f0: 61dd 2ebe 7f91 163e d921 2c3e 8148 e5bd
0.13314281 0.10964884 -0.03905742 -0.0077477545 0.050630674 0.056479707 -0.004517272 0.0521518
-0.06735039 0.04090482 -0.0689636 -0.088997535 -0.13767727 -0.12841585 0.14795212 0.1089948
-0.022976965 0.074404195 0.014837399 -0.1701611 -0.019184783 0.066481635 -0.09512335 0.14143328
0.089774564 0.14744802 0.06521629 0.088730976 -0.043864727 0.0928901 -0.102030315 -0.01957789
0.03188184 0.12910528 -0.070739545 -0.16500394 0.073609546 -0.03310597 0.11941977 -0.072543405
0.052108422 -0.13454291 0.021474078 -0.05090125 -0.021131158 -0.059873134 -0.095671155 0.022790745
-0.049420655 -0.095290676 0.004468113 -0.13349295 -0.14018528 0.08157401 0.061700344 0.066905975
-0.12419755 0.0090753585 0.15848882 0.061244473 -0.12798929 -0.11944538 -0.11188671 0.039412767
-0.13555132 0.06678271 -0.13171786 0.14040442 -0.120101154 -0.024279088 0.081388816 -0.12515801
-0.08684409 0.022892877 -0.11184505 -0.056029454 0.013984591 0.17659111 0.14885773 -0.045785382
0.033014387 -0.06635149 -0.06174311 0.06879124 0.018018171 -0.16843195 0.12618442 0.16016625
0.14615048 0.018958583 0.15162586 0.0825129 -0.11082396 -0.04953003 -0.11573097 0.13281907
-0.16607438 0.109839156 0.08768286 0.012638763 0.094743386 -0.012378767 -0.046751797 0.09527506
-0.018705651 -0.084831744 -0.0027671456 -0.10971617 -0.14414327 -0.058571197 -0.094533905 0.07385264
0.1698214 0.035527647 -0.15471493 -0.123406515 0.109114155 0.15936838 -0.07760242 0.0077421367
-0.1734838 0.0074076504 0.08610971 -0.09548419 -0.17076637 0.1470394 0.16809787 -0.1119547

bias_hh_l0 f4 [128]
00000000: 40b9 1abd 6a21 9fbd 8d49 243e e098 333d
00000010: bc84 57bd 9062 34be 004d ddbb e951 1c3e
00000020: 002d 4aba ea94 ea3d f36d b4bd 60a5 7b3c
00000030: fab2 c53d afe1 10be 3fd3 a2bd 409a 1a3b
00000040: e888 fabd 8e6e 9e3d 0435 b0bd b7d6 94bd
00000050: 2cff 6c3d a65b e7bd b10c b1bd 3d61 0c3e
00000060: f22a 22be d526 2c3e 4260 80bd 4e68 8e3d
00000070: 8002 85bb d846 3cbd f27e 18be f9a2 16be
00000080: daee 25be 26b7 8d3d 30fa 0fbd 5828 1c3d
00000090: 670f ddbd 5b10 003e 9294 e03d 023b a63d
000000a0: e4b2 dcbd 0020 a63a 6ec0 1abe 2ce9 7f3d
000000b0: c999 01be 95c9 113e 4006 693d ca77 e93d
000000c0: 80b9 62bb 6f74 113e b1e2 123e 9126 fbbd
000000d0: 89d2 a5bd 7cea 33bd d659 f33d 8407 513d
000000e0: c0ce 79bb 297a 1b3e 6c68 893d a0f3 d3bb
000000f0: 1030 1e3c 7f26 1c3e cef2 d13d e0e2 433c
00000100: 2963 89bd 5d74 1b3e 9b43 25be 2184 013e
00000110: 6c2f 2c3d 5814 96bc c094 6d3b d771 a1bd
00000120: 4260 e93d 6e93 e93d 3d5f 293e 8024 083c
00000130: c68e 1ebe 286b 2bbe 18b4 ad3c 97c6 213e
00000140: 45f3 93bd 1734 11be 00c7 883d f230 833d
00000150: 366f 28be c8a0 a8bd 9f9d 1b3e 5ead eb3d
00000160: 32b1 d23d 5204 a33d 662f 93bd 353c 80bd
00000170: b9ef 103e 11e2 233e 8538 d1bd 00ec 783d
00000180: 3093 a3bc ebc8 28be 9016 3ebc de96 b43d
00000190: ec87 febd 92db b43d ab25 103e bf73 1d3e
000001a0: ccac 01be 3c9d 7d3d fa45 a63d e10b 13be
000001b0: 620d d93d 4d56 193e a7dc 2abe e3a8 abbd
000001c0: 0068 f93b 83dc 9dbd 87c4 23be 00f9 23bd
000001d0: a841 203d 2e3e 873d 13eb 32be 41c1 203e
000001e0: ed5f e9bd 005e 183d ea19 bc3d a00d 7e3c
000001f0: 1690 e13d 53e6 313e da9d c23d a470 ddbd
-0.037774324 -0.07770045 0.16043682 0.043846965 -0.05261682 -0.17615724 -0.006753564 0.15265621
-0.0007712394 0.11454184 -0.08810034 0.015359253 0.09653278 -0.14148591 -0.07950448 0.0023590475
-0.12233144 0.077359304 -0.08603862 -0.07267516 0.05786054 -0.112967774 -0.08644999 0.13708968
-0.15836695 0.16811688 -0.0626836 0.06953488 -0.004059136 -0.045966 -0.14892176 -0.14710607
-0.16204396 0.069196984 -0.035150707 0.038124412 -0.107939534 0.12506239 0.109658375 0.081167236
-0.10776308 0.0012674332 -0.15112469 0.06247823 -0.1265632 0.14237054 0.056890726 0.11399801
-0.003459543 0.14204572 0.14344288 -0.12263215 -0.08096797 -0.043924794 0.11882369 0.051032558
-0.0038117617 0.15183319 0.0670937 -0.0064682513 0.009655014 0.1524906 0.102513894 0.011955947
-0.067083664 0.15181108 -0.1613907 0.1264806 0.042037413 -0.018320248 0.0036251992 -0.07883041
0.11395313 0.11405073 0.16540237 0.0083094835 -0.15484151 -0.16740096 0.02120404 0.15798412
-0.07224134 -0.14180027 0.06678581 0.0640582 -0.16448674 -0.082337916 0.15196846 0.115076765
0.102877036 0.079598084 -0.07186775 -0.062614836 0.14153947 0.16004206 -0.10215858 0.060771942
-0.019967645 -0.16482894 -0.011602059 0.08817838 -0.12428269 0.08830942 0.14076869 0.15376185
-0.12663573 0.06191753 0.08118816 -0.1436 0.10598256 0.14974327 -0.16685735 -0.08381822
0.0076112747 -0.07708075 -0.15992938 -0.040032387 0.039125115 0.06603657 -0.17472486 0.1569872
-0.113952495 0.03719902 0.0918463 0.015506178 0.1101381 0.17373018 0.09502764 -0.108125

weight f4 [58, 32]
00000000: 1d06 053f 4e4f 36be 79d7 fcbd 8bf8 adbd
00000010: 3177 1c3f e59c e33e 5e68 bcbe 7df7 b8bf
00000020: 8b4a bfbe 7d13 73be 4271 823f 3906 24bf
00000030: a5a0 8cbd 7fdb 15c0 4670 d1ba 0887 94be
00000040: 6335 9e3e 0c9b 1a3f 00c5 e7be 2cf1 5abe
00000050: 7cb1 3abe de0d 19bf 1db6 2cbf 2a07 8bbf
00000060: 2de1 fb3e 3f77 0fbf cddf db3e 841d 4c3e
00000070: 8145 20bf ce58 553d c591 b7bd f640 59bf
00000080: b1ec 60be b07b b7bd 9202 34bf 2ffe 08bf
00000090: 0e58 aabe 2596 f2be 0733 32bf 7b7e 51be
000000a0: 53c4 d739 bf2e 113f 4359 66bd 7c60 99bf
000000b0: 4d45 0ebf 16e0 2dbd 11fb fabf 5b1b 07be
000000c0: 350c 95be 930a 453f 19e1 54bf 7f25 983e
000000d0: 4f30 9c3b 5548 5f3c eb8a 81bf 51b8 20bf
000000e0: e4e0 24bf 3931 d63e 23e6 80bf 8b47 95bc
000000f0: b03f 393f 84d9 46be ecbd 333f 39fc 4fbe
00000100: 8464 32be 6a83 6fbf e18f c9be 8dd0 1c3e
00000110: 2fc3 c1bf 686d 2bbe 170a 97be 8703 1f3f
00000120: 79ec aebe 8986 953e bc47 3ebe 0166 08bf
00000130: 970c 71bf 20ef 033e 06e8 aebe e8b1 d6be
00000140: 5191 533b 1ac4 d9bd f697 03bf 710d 793e
00000150: f581 fc3d cd39 4b3e f926 8e3e 3186 c3bd
00000160: b30e c5be 7168 803d a865 8abe f5a7 313e
00000170: 7541 cd3e f500 0d3f 3246 113e 269d 44be
00000180: 66f4 10bf ff34 ea3a 4b92 20be bc94 6dbe
00000190: 81bf 2b3f 35bd 7b3f 983d cebe 694c a5bb
000001a0: d4f5 873e f4a9 273f 914a 24bf b5da 2ebf
000001b0: f551 d6be 253d 373f 208a d6be b922 59bf
000001c0: 9330 4bbf 62e7 97be c492 0fbf 1b3b c93e
000001d0: aa84 c2be 5f08 8dbe 767c 383f bc0c d5bf
000001e0: 827e 8ebf cd0c 66bf adeb e4be 7e15 0ebe
000001f0: 6169 1cbf 40eb 34be 72ba 7a3f 17bc ecbe
00000200: bdb9 22bf bae4 bdbe 01cc c5be 6c72 aa3f
00000210: b26d 38bf 93be ecbe 8223 6fbe dcb3 76be
00000220: eb02 c7bc e9e0 87be 74ea d2be 6861 24bf
00000230: 96e6 d1be 013e e9be 12af f5be 593a b1be
00000240: af29 1d3d 68c5 d6bf be10 8bbf e16a a23f
00000250: f7e2 40bf 05cf cdbe e7ff 7a3f 425e 19bf
00000260: 387c aabe c422 ebbe d10c b33e aabc 00c0
00000270: 6bec 41bc 0a44 c7be a4da 6ebf 3139 1fbe
00000280: 1dbf 0abf dbd4 7abe ca5f 96be e9d1 e1be
00000290: 4b06 4e3e 02cf 28bf 9909 60bf 674d 843e
000002a0: bdcb e7be 7c3a 603f 6e1e 863f cdce 343f
000002b0: 671d 133f 71d4 64be 7180 7e3d bde2 433f
000002c0: 2fa4 a9bd 22b6 8fbe 80aa d0bd 8e51 b4bd
000002d0: c41f acbe d683 7a3d 62d3 7dbf 491e 10bf
000002e0: 10a2 573e e94d 4fbf c8c5 383f 84c4 e7bd
000002f0: 7297 a5bd 1907 18bf fa73 7c3f 28e5 163e
00000300: 5745 cabe 28ac d4bf f43c 82bc 5595 55be
00000310: af1b 6b3e 6cdf 10bc 98cd e7be d167 88bf
00000320: d31c 8dbf 4695 293f 6d2a 9ebe 2320 b1be
00000330: 1656 6abe 778f 72bf b971 90be c94b 40be
00000340: c7b9 7f3e 413f 35bb 5913 dfbe 8ec0 e43e
00000350: 9b1d 2fbf 8ff2 5abd 410a 00be af48 a0bc
00000360: bb55 ac3e b81b 36bf cde2 bbbd 0acf 5ebd
00000370: c83b 9fbf 708e 4abf 9c65 053f cca7 293f
00000380: d848 d5be b500 0dbf 8db2 a6be 80b3 4fbe
00000390: 4099 3f3f 72c3 b7bd bd9a 72be df65 15bf
000003a0: 48e0 55bf 7a0f 553e 58d9 25bf a739 f0be
000003b0: c977 87be 64b9 78bf 6d40 95bd 7e04 05bf
000003c0: bd8b d53e b5c1 6b3e da2f 69be 69e7 f03e
000003d0: 6305 20bf 0d2d 683f 704d 3b3c 8dd6 3e3e
000003e0: 8e5d c73e d493 31bf 1105 34bf b961 33bf
000003f0: abed 91bf 6d5f 06bd d3a5 203f 70ff 043f
0.51962453 -0.1780369 -0.12345786 -0.084946714 0.6111937 0.4445564 -0.36798376 -1.4450527
-0.3736156 -0.23737903 1.0190814 -0.64071995 -0.06866578 -2.341522 -0.0015978895 -0.2900927
0.30900106 0.6039283 -0.45267487 -0.21381062 -0.18231767 -0.59786785 -0.6746538 -1.0861561
0.49195233 -0.5604133 0.42944184 0.19933134 -0.62606055 0.052086644 -0.0896335 -0.8486475
-0.2196529 -0.089591384 -0.7031642 -0.53512853 -0.33270305 -0.47380176 -0.6960911 -0.20458405
0.0004115427 0.56711954 -0.05623747 -1.198257 -0.55574495 -0.042450033 -1.9607869 -0.13194029
-0.29110876 0.7696926 -0.8315597 0.29716107 0.004766501 0.013628085 -1.0120519 -0.62781245
-0.64405656 0.4183443 -1.0070232 -0.01822259 0.72362804 -0.19418913 0.7021167 -0.20311059
-0.17421156 -0.93559897 -0.39367583 0.15313931 -1.513769 -0.16740954 -0.29499885 0.6211476
-0.3416479 0.29204205 -0.18582052 -0.53280646 -0.94159836 0.12884188 -0.34161395 -0.41932607
0.003228266 -0.106331065 -0.5140375 0.24321534 0.12329475 0.19846268 0.2776411 -0.09547079
-0.38487777 0.062699206 -0.27030683 0.17349227 0.40089002 0.55079585 0.14186934 -0.19200572
-0.5662292 0.0017868577 -0.15680806 -0.23201269 0.67089087 0.9833558 -0.40281367 -0.005044509
0.2655474 0.654937 -0.6417628 -0.6830247 -0.41859403 0.71577674 -0.41902256 -0.8481861
-0.79370993 -0.2966872 -0.5608332 0.39302906 -0.3799184 -0.2754545 0.7206491 -1.6644511
-1.1132357 -0.8986328 -0.44711056 -0.13875386 -0.61098295 -0.17667866 0.9794074 -0.4623725
-0.63564664 -0.37088567 -0.38632205 1.3316169 -0.7204238 -0.46239147 -0.23353389 -0.24092048
-0.024293384 -0.2653878 -0.411945 -0.6421113 -0.40996236 -0.45555118 -0.4798513 -0.34614828
0.03836983 -1.6778994 -1.0864484 1.2688867 -0.7534632 -0.40197006 0.98046726 -0.5990945
-0.33297896 -0.45924962 0.34970716 -2.0115151 -0.011836152 -0.38919097 -0.9330237 -0.1554916
-0.54197866 -0.2449526 -0.29369956 -0.4410546 0.20119588 -0.6594087 -0.87514645 0.25840303
-0.45272627 0.8758924 1.0478036 0.7062805 0.5746674 -0.22346665 0.06213421 0.7651785
-0.08283269 -0.28068644 -0.1018877 -0.08804618 -0.33617985 0.061160885 -0.9915067 -0.5629621
0.21057916 -0.80978256 0.7217679 -0.11316779 -0.080855265 -0.5938583 0.98614466 0.14735854
-0.39506027 -1.6615038 -0.015898205 -0.20857747 0.22959779 -0.00884233 -0.45274043 -1.0656682
-1.1024421 0.662434 -0.30891743 -0.3459483 -0.22884402 -0.9475016 -0.28211764 -0.1877891
0.24973212 -0.002765611 -0.4356945 0.44678158 -0.6840455 -0.05345398 -0.12503912 -0.019565908
0.33659157 -0.71136045 -0.09174118 -0.054396667 -1.2440119 -0.7912359 0.5210817 0.6627166
-0.41657138 -0.55079204 -0.32558098 -0.20283318 0.74843216 -0.08972825 -0.2369184 -0.5835857
-0.8354535 0.20806685 -0.64784765 -0.46918985 -0.26458576 -0.97157884 -0.07287679 -0.5195998
0.41708174 0.23023112 -0.2277216 0.47051552 -0.6250822 0.9069374 0.011432037 0.18636532
0.38938564 -0.6936619 -0.7032023 -0.7007099 -1.1400656 -0.03280585 0.6275303 0.51952267

bias f4 [58]
00000000: 2ed7 4fbf 9421 d3be 25f9 a9bf c7f9 a1be
00000010: 3cb4 4cbf ad39 10bf 2ebf 8ebf 2d8d 20bf
00000020: e2cd 0fbf 9ad2 5dbe 2c13 98bf cf64 29bf
00000030: 91c8 4bbe e032 7bbe 959b 75bf f156 d1be
00000040: 1f90 85bf e7ef 69bf b961 8ebf ab77 8fbf
00000050: fc07 e3bf c963 f0be 8fe4 6fbf 9929 4ebf
00000060: 62d8 7cbf 8e1e 09c0 3802 c2be 6910 b8bf
00000070: 26b3 14bf af50 00be 0195 5fbf c3a8 61bf
00000080: 160b 90bf 259b 9fbf 4479 e1be 316a 91be
00000090: d318 03c0 6fca 8bbf abdc 8ebf 96df 9cbf
000000a0: dc36 1dbf 7314 c7bf 3d05 c8bf ffb0 51bf
000000b0: b339 80bf 4149 d7be 569d c53e dad4 01bf
000000c0: e0c9 9abe bdb9 aabf 0597 25bf 8774 72bf
000000d0: 9e6f 5fbf a8a3 81bf 5dcf aabf 157a c5bf
000000e0: 86ff 0bc0 f248 94bf
-0.81187713 -0.41236556 -1.3279158 -0.31635877 -0.79962516 -0.56338006 -1.1152093 -0.6271542
-0.5617353 -0.2166237 -1.1880851 -0.66169447 -0.19900729 -0.24531126 -0.95940524 -0.40886644
-1.0434607 -0.91381687 -1.1123573 -1.1208395 -1.7736812 -0.4695113 -0.9370813 -0.80532223
-0.98767674 -2.14249 -0.37892318 -1.4380008 -0.5808586 -0.12530778 -0.87336737 -0.88148135
-1.1253383 -1.2469221 -0.4403783 -0.2840133 -2.0483902 -1.0921153 -1.1161093 -1.2255733
-0.61411834 -1.5553116 -1.5626599 -0.819107 -1.0017608 -0.42048076 0.385966 -0.5071541
-0.30232143 -1.3337933 -0.6468356 -0.94709057 -0.8727969 -1.0128069 -1.3344532 -1.5427881
-2.187471 -1.1584761
